MED/application/MTRCNN_0_lr0.0005_e100_b64/model/best_val.pth (torch, 983318 bytes, 55 tensors)

bn0.weight f4 [64]
1.1988821 1.0274737 0.98145777 1.0772833 1.0990467 1.1221893 1.0512371 0.945554
1.0522286 1.0860281 0.8455425 0.9258119 0.9761801 1.1583965 0.9824166 1.0578523
1.0570242 1.0626427 1.0232562 1.003123 0.9758542 1.053647 1.021482 0.9967857
0.9843721 1.1194173 1.1215502 1.0596339 1.1433657 1.0037155 1.1535555 1.059841
1.0259575 1.0721917 1.230405 0.8520977 0.9176434 0.7012992 0.830656 0.7675012
0.79760575 0.75774086 0.72613204 0.73084617 0.65187997 0.6501544 0.6343127 0.6740529
0.7350923 0.5705571 0.82698566 0.77975327 0.81360364 0.9487856 0.6764175 0.76190025
0.63562846 0.58071655 0.7384686 0.8708505 0.8671347 0.8845262 0.71238554 1.1079443
00000000: f874 993f 4284 833f d140 7b3f 6be4 893f
00000010: 90ad 8c3f e6a3 8f3f f08e 863f d40f 723f
00000020: 6daf 863f f802 8b3f 7975 583f 0202 6d3f
00000030: f0e6 793f 5646 943f a87f 7b3f b467 873f
00000040: 924c 873f ad04 883f 0ffa 823f 5666 803f
00000050: 95d1 793f e8dd 863f ecbf 823f 592d 7f3f
00000060: cfff 7b3f 1149 8f3f f58e 8f3f 15a2 873f
00000070: cf59 923f c079 803f b5a7 933f dfa8 873f
00000080: 9352 833f 943d 893f e97d 9d3f 1323 5a3f
00000090: aeea 6a3f 5888 333f dfa5 543f f57a 443f
000000a0: e42f 4c3f 4efb 413f cae3 393f bc18 3b3f
000000b0: 9be1 263f 8570 263f 5162 223f bb8e 2c3f
000000c0: 022f 3c3f 0810 123f 55b5 533f e99d 473f
000000d0: 5448 503f 9de3 723f b329 2d3f e50b 433f
000000e0: 8cb8 223f d7a9 143f 470c 3d3f 0ff0 5e3f
000000f0: 8afc 5d3f 4f70 623f e65e 363f 1ed1 8d3f

bn0.bias f4 [64]
0.043734007 -0.21992461 0.0960965 -0.06997932 0.019761631 -0.10457728 -0.0048042163 0.062527284
-0.11649879 -0.030699724 -0.06621414 -0.03715466 0.020715011 -0.009244606 -0.051344924 0.060994074
0.08627677 -0.08618168 0.062911265 0.09639807 0.006106431 -0.02918342 0.0361604 0.13702531
0.02275607 0.038593512 -0.10711021 -0.02770585 -0.057632543 -0.06430969 -0.11755147 -0.09779819
0.027053079 -0.052682653 -0.106281236 0.11620363 0.13970281 0.18521449 0.2605055 0.3184543
0.07617707 0.22777824 -0.08951859 -0.092658184 0.10571484 -0.011870296 0.2567637 0.3834823
0.115568765 0.19756253 0.12252269 0.110843524 0.033153627 0.17683063 -0.0067878016 -0.1358841
0.025640106 0.15587175 -0.0940262 0.16742983 0.18223532 0.0469523 0.036665134 -0.036009774
00000000: 6e22 333d eb33 61be 3ece c43d 5151 8fbd
00000010: 25e3 a13c 9d2c d6bd b06c 9dbb 4e0e 803d
00000020: eb96 eebd fd7d fbbc 479b 87bd 7c2f 18bd
00000030: 87b2 a93c b076 17bc 0e4f 52bd ecd4 793d
00000040: e0b1 b03d 0580 b0bd 9fd7 803d 5a6c c53d
00000050: 7518 c83b 1112 efbc ed1c 143d 5d50 0c3e
00000060: f06a ba3c 3b14 1e3d 995c dbbd 61f7 e2bc
00000070: 1a10 6cbd ccb4 83bd d3be f0bd 6b4a c8bd
00000080: 6b9e dd3c c4c9 57bd faa9 d9bd 2bfc ed3d
00000090: 410e 0f3e dea8 3d3e fa60 853e 710c a33e
000000a0: b902 9c3d b33e 693e 8655 b7bd 93c3 bdbd
000000b0: 0681 d83d a17b 42bc 8876 833e cb57 c43e
000000c0: 51af ec3d d54d 4a3e 2ded fa3d ee01 e33d
000000d0: 19cc 073d 1713 353e 356c debb 3425 0bbe
000000e0: 330b d23c d89c 1f3e cf90 c0bd ba72 2b3e
000000f0: e59b 3a3e 0e51 403d 2e2e 163d fc7e 13bd

bn0.running_mean f4 [64]
0.009112454 0.009987377 0.0071041165 0.008332973 0.0046565654 0.0075771287 0.006148939 0.0010187675
4.654934e-05 0.0055454266 0.012276921 0.0074994615 -0.0025702459 -0.008365094 -0.009323384 -0.0056186467
0.00045831106 0.006930162 0.0070322603 0.0020401275 5.9874466e-05 0.0068597943 0.0083622355 0.008189665
0.009480504 0.007325363 0.004953646 0.0035802154 0.00735471 0.0117948465 0.012343751 0.013152388
0.020227138 0.023555333 0.020344513 0.017879536 0.02180926 0.020275692 0.020209724 0.01776123
0.01716146 0.017881157 0.015794553 0.013532867 0.01309416 0.00999484 0.008262388 0.015851047
0.021330565 0.021429045 0.017435402 0.013424309 0.010038476 0.006537644 0.0099138785 0.017477814
0.014217925 0.009126928 0.012637385 0.014024853 0.015322225 0.0130606955 0.008159779 0.0004904899
00000000: 674c 153c 18a2 233c a6c9 e83b 0687 083c
00000010: 1a96 983b 9049 f83b 0a7d c93b 2a88 853a
00000020: f93d 4338 69b6 b53b 2425 493c 0bbe f53b
00000030: 9271 28bb bf0d 09bc 1bc1 18bc a01c b8bb
00000040: 7849 f039 6a16 e33b e06e e63b a9b3 053b
00000050: b821 7b38 20c8 e03b c201 093c f22d 063c
00000060: 1e54 1b3c 9909 f03b 3252 a23b 0ca2 6a3b
00000070: c7ff f03b 2c3f 413c 723d 4a3c 1d7d 573c
00000080: 62b3 a53c 1df7 c03c 89a9 a63c 1b78 923c
00000090: 55a9 b23c 3519 a63c dd8e a53c 0080 913c
000000a0: 3196 8c3c 817b 923c 9463 813c f5b8 5d3c
000000b0: e388 563c 66c1 233c f85e 073c 0eda 813c
000000c0: 70bd ae3c f78b af3c b0d4 8e3c a2f1 5b3c
000000d0: 6c78 243c bc39 d63b d26d 223c a22d 8f3c
000000e0: 4df2 683c 1c89 153c 090d 4f3c 7fc8 653c
000000f0: 120a 7b3c 87fc 553c 98b0 053c 3894 003a

bn0.running_var f4 [64]
0.9838617 0.99193686 0.97914845 0.9880389 0.9957563 0.98438454 0.96390265 0.9546214
0.97114617 0.9963924 1.0198467 1.0156709 0.9965261 0.958323 0.94462395 0.9485648
0.96148914 0.98588616 1.0036082 1.0038368 0.99488556 0.9804767 0.9799174 0.98940563
1.0009499 1.00986 0.9860537 0.9542726 0.9544283 0.9718402 0.98115075 0.9801161
0.9724081 0.9605862 0.96201056 0.9643416 0.9653823 0.9605759 0.9613644 0.9655427
0.96377665 0.96044785 0.9572325 0.9562804 0.96104115 0.9585552 0.960709 0.9603915
0.9717554 0.97929287 0.9769958 0.9718581 0.97170436 0.9742012 0.97363675 0.97460866
0.9735894 0.95749146 0.95876825 0.9665401 0.9708131 0.96969146 0.96955574 0.9736853
00000000: 5cde 7b3f 93ef 7d3f 79a9 7a3f 1ef0 7c3f
00000010: e3e9 7e3f a000 7c3f 53c2 763f 1162 743f
00000020: 099d 783f 9313 7f3f 568a 823f 8101 823f
00000030: 561c 7f3f a854 753f e0d2 713f 25d5 723f
00000040: 2724 763f 0963 7c3f 3c76 803f b97d 803f
00000050: d2b0 7e3f 8500 7b3f dedb 7a3f b049 7d3f
00000060: 201f 803f 1843 813f 046e 7c3f 364b 743f
00000070: 6a55 743f 85ca 783f b22c 7b3f e4e8 7a3f
00000080: bdef 783f fae8 753f 5346 763f 17df 763f
00000090: 4b23 773f 4de8 753f fa1b 763f ce2d 773f
000000a0: 11ba 763f e9df 753f 300d 753f cbce 743f
000000b0: cb06 763f e063 753f 06f1 753f 38dc 753f
000000c0: f6c4 783f f0b2 7a3f 661c 7a3f b1cb 783f
000000d0: 9ec1 783f 4065 793f 4240 793f f47f 793f
000000e0: 283d 793f 291e 753f d671 753f 2c6f 773f
000000f0: 3587 783f b33d 783f ce34 783f 7143 793f

conv_block1.conv1.weight f4 [16, 1, 3, 3]
-0.5347233 0.920386 -0.74849105 -0.5227722 -0.0058460357 -0.52081215 0.22766532 0.8243772
-0.33976084 0.5490231 0.4060832 -0.81716055 -0.55788416 0.5889208 -0.103468314 0.8124809
-0.30163348 -0.72775143 -0.39710072 0.6915174 0.8904422 -0.0017953723 -0.4520407 0.5135336
0.15607722 0.74420214 0.80772424 1.0350708 0.5367633 0.541422 -0.14775397 -0.56598413
-0.13703032 0.5960854 -0.67339295 0.32746068 0.06626733 0.13619393 -0.4668608 -0.18039007
-0.23846976 -0.6366475 0.2899231 0.47742444 0.41875368 0.52256125 -0.50847536 -0.53381455
0.69239813 0.43056604 0.28976554 0.29882833 -0.5148378 0.3922343 -0.56140256 0.6456723
-0.80899215 -0.52992475 0.8151838 0.56919074 0.23110634 0.12963906 -0.5821557 -0.28007632
-0.54481965 -0.123185344 0.5554384 -0.3721624 0.23671879 0.9525409 0.63655114 -0.30509162
0.5549987 -0.8065287 -0.30572897 -0.52287173 -0.5567127 -0.87715936 0.21780273 -0.06145469
-0.82739973 0.25563785 -0.2455989 0.64381784 -0.14430217 -0.26663437 -0.23579395 -0.87742007
-0.04399101 0.74674904 0.8279774 -0.54944015 0.37131298 0.8448212 -0.93484396 -0.012704001
0.65051675 0.31933758 -0.2980261 -0.18062851 0.42214495 -0.5546126 -0.24365306 0.797392
-0.47766057 -0.570345 -0.024045393 -0.35779387 0.19235495 0.11071225 -0.8012328 0.22988302
0.23079611 0.28957656 0.7271361 -0.1444288 0.3867959 0.8412703 0.6038873 0.642769
0.33083287 -0.7142706 0.27113888 0.20232628 -0.67253536 -0.14075625 0.7500445 0.17339493
0.34918562 0.75415635 0.18211088 -0.6384456 -0.13620855 -0.53148234 0.28173193 -0.7369377
0.39060098 -0.8155522 0.0045561846 0.5373809 -0.11735526 -0.00059203437 0.22465236 0.6053253
00000000: a0e3 08bf 6b9e 6b3f 1c9d 3fbf 66d4 05bf
00000010: 1a90 bfbb f253 05bf 1921 693e 620a 533f
00000020: 22f5 adbe c78c 0c3f 23ea cf3e 6f31 51bf
00000030: 7fd1 0ebf 83c3 163f 32e7 d3bd c0fe 4f3f
00000040: b46f 9abe eb4d 3abf c950 cbbe 4907 313f
00000050: 05f4 633f b352 ebba e171 e7be f076 033f
00000060: b5d2 1f3e 0884 3e3f 04c7 4e3f 337d 843f
00000070: 5269 093f a29a 0a3f d14c 17be 56e4 10bf
00000080: ad51 0cbe 0e99 183f 7b63 2cbf eda8 a73e
00000090: 2ab7 873d 6c76 0b3e 6108 efbe 2db8 38be
000000a0: 6b31 74be 55fb 22bf cd70 943e fa70 f43e
000000b0: e266 d63e 93c6 053f 712b 02bf 12a8 08bf
000000c0: 0141 313f 2773 dc3e 265c 943e 0700 993e
000000d0: 69cc 03bf efd2 c83e 14b8 0fbf c84a 253f
000000e0: 1c1a 4fbf 26a9 07bf e3af 503f 7cb6 113f
000000f0: 24a7 6c3e 1ac0 043e 2808 15bf 2a66 8fbe
00000100: 4d79 0bbf 9948 fcbd 3631 0e3f 128c bebe
00000110: 6966 723e b8d9 733f 04f5 223f f834 9cbe
00000120: 6514 0e3f aa78 4ebf 8288 9cbe ecda 05bf
00000130: b984 0ebf 848d 60bf ae07 5f3e eab7 7bbd
00000140: 78d0 53bf f7e2 823e 477e 7bbe 3fd1 243f
00000150: f3c3 13be 4d84 88be f873 71be 9a9e 60bf
00000160: eb2f 34bd f22a 3f3f 54f6 533f 1ca8 0cbf
00000170: bc1c be3e 3446 583f ef51 6fbf 7124 50bc
00000180: 4488 263f 3780 a33e e196 98be aef6 38be
00000190: 6223 d83e 17fb 0dbf 3080 79be e221 4c3f
000001a0: ed8f f4be 2102 12bf d8fa c4bc c230 b7be
000001b0: b2f8 443e 1bbd e23d 981d 4dbf 7466 6b3e
000001c0: d155 6c3e 6143 943e 9725 3a3f 25e5 13be
000001d0: 1d0a c63e 7e5d 573f 5c98 1a3f 828c 243f
000001e0: ed62 a93e 70da 36bf b7d2 8a3e 9f2e 4f3e
000001f0: 472b 2cbf 6822 10be eb02 403f 718e 313e
00000200: 75c8 b23e 6410 413f 467b 3a3e 2c71 23bf
00000210: 417a 0bbe 3a0f 08bf 2b3f 903e f3a7 3cbf
00000220: dafc c73e 07c8 50bf 0c4c 953b cb91 093f
00000230: f457 f0bd c132 1bba 450b 663e 99f6 1a3f

conv_block1.bn1.weight f4 [16]
0.9475974 1.4629134 0.5794311 0.75343674 1.0948155 0.6858486 1.2530181 0.6682412
1.0740331 1.4212112 0.9123455 0.9190941 0.73092264 0.67222077 0.8248201 1.1187764
00000000: be95 723f bf40 bb3f 9955 143f 3be1 403f
00000010: ea22 8c3f c693 2f3f e662 a03f db11 2b3f
00000020: eb79 893f 40ea b53f 7a8f 693f c049 6b3f
00000030: bf1d 3b3f a916 2c3f 6927 533f 1134 8f3f

conv_block1.bn1.bias f4 [16]
-0.5777201 -0.10130876 -0.26136848 -0.1001592 -0.3181175 -0.07591687 -0.59300226 -0.0668693
-0.27460602 -0.14932431 -0.2389044 -0.32941097 0.0012084618 -0.056264922 -0.10966021 -0.5369242
00000000: 77e5 13bf f87a cfbd 17d2 85be 4420 cdbd
00000010: 4ce0 a2be 4e7a 9bbd ffce 17bf c6f2 88bd
00000020: 2999 8cbe 79e8 18be 5ba3 74be 8ea8 a8be
00000030: 4065 9e3a 0c76 66bd 8895 e0bd dd73 09bf

conv_block1.bn1.running_mean f4 [16]
-0.024900697 -0.0041628946 0.104881205 0.054582007 -0.0047768974 0.03969353 -0.002777425 0.028443815
-0.11396696 -0.007211703 0.045389857 -0.042400036 0.04495063 0.049370147 0.043489367 0.0033305553
00000000: 8cfc cbbc e468 88bb f5cb d63d 6291 5f3d
00000010: 8587 9cbb af95 223d 7605 36bb 0103 e93c
00000020: 8267 e9bd 2650 ecbb b7ea 393d a9ab 2dbd
00000030: 271e 383d 5a38 4a3d e821 323d 7245 5a3b

conv_block1.bn1.running_var f4 [16]
0.72281563 0.5881823 6.9761066 1.9221798 0.21350007 1.1320562 0.32233953 0.8311436
8.179409 0.4199449 1.6402373 1.1722162 1.3258529 1.6979082 1.3330315 0.28656846
00000000: 720a 393f 1d93 163f 443c df40 fd09 f63f
00000010: c39f 5a3e 38e7 903f b009 a53e d4c5 543f
00000020: dcde 0241 0503 d73e 4cf3 d13f 2e0b 963f
00000030: 8cb5 a93f 0e55 d93f c7a0 aa3f 1ab9 923e

conv_block2.conv1.weight f4 [32, 16, 3, 3]
-0.16006468 0.015537676 -0.2645438 -0.026345046 -0.13916126 -0.079276964 -0.21954662 0.14350602
-0.0878289 0.19016442 0.15243298 0.054740157 0.27035815 0.25894657 -0.07385374 0.016095165
-0.010244658 -0.023688046 0.3245607 0.24357507 0.549518 0.20834602 0.5922927 0.20989822
0.08576646 0.5550081 0.39951384 0.05077779 -0.17520598 -0.010383283 -0.38501388 -0.44448015
-0.027294815 -0.29645407 -0.49628058 -0.16835396 -0.032774273 -0.0438132 -0.19348334 -0.13343158
0.14721563 -0.3076964 0.2209628 -0.0054551484 -0.09758842 -0.045340713 -0.3666221 -0.08624592
-0.09236958 0.015532837 -0.16415846 0.02944489 -0.24911256 -0.07483159 -0.41085654 0.22449407
-0.4864344 -0.27458498 0.5964665 -0.3522494 -0.2707236 0.31111735 -0.5280903 -0.070935294
-0.07447606 -0.103776745 -0.12788641 -0.29817107 -0.06626206 0.04271586 -0.45557863 -0.343151
-0.15004379 0.008570948 -0.05024345 0.015328437 -0.023714889 -0.1900391 -0.1886999 0.09695018
-0.06817742 0.15078942 -0.16957286 0.122243196 -0.16475199 -0.051315814 0.10383716 -0.16147351
-0.2093612 -0.0922324 0.10196793 -0.025358876 0.14425331 0.07080456 -0.031433802 0.33076093
0.14644064 0.09845249 0.13866419 -0.22674026 0.083276324 -0.007145818 0.076597564 0.18362951
-0.0449935 -0.29277351 0.07205947 -0.18945567 -0.1351698 0.0033541375 -0.0032555922 -0.43371284
-0.34717402 -0.07056328 -0.4487028 -0.2852807 -0.4644114 0.07957793 -0.3359616 -0.10685822
-0.3870844 -0.28920007 -0.112492435 -0.10583993 -0.5297144 -0.33785948 -0.24923348 -0.14479701
0.104429655 -0.27022713 -0.19518916 -0.24602404 -0.24087286 -0.032453455 -0.07976139 -0.3631669
0.05231598 -0.62437826 -0.36478692 0.19911867 -0.684787 -0.12454277 0.18678802 -0.6290151
0.10987393 -0.15059501 0.17088775 -0.12089571 -0.08025234 0.20558126 -0.22512896 -0.08029474
-0.14726874 -0.40540633 -0.041501146 0.06278187 -0.5392758 0.07492727 -0.061486527 -0.41395918
0.18486871 0.016283128 -0.040305972 0.26437193 0.11739542 -0.029174116 -0.06157449 0.11765007
0.043097686 -0.044618305 0.32838964 -0.04627753 -0.1959661 0.21145067 -0.15183622 0.13521086
0.18478248 -0.20265692 0.14781128 -0.014005148 -0.0007411404 -0.11312131 -0.024242142 -0.069224216
0.29825318 0.039075144 -0.13823754 0.2216396 -0.27952024 -0.39704332 0.14187285 0.25933433
-0.46423078 -0.0033911841 0.03270024 -0.27383068 0.0032755735 0.044405892 -0.036614902 0.20184863
0.09153171 0.009472139 0.12817654 -0.26791373 -0.15958153 1.980701e-05 -0.40921614 -0.3739201
0.07348407 0.21349795 -0.41995358 0.20586568 0.22873344 -0.34704983 -0.041408293 -0.0930802
-0.21202636 -0.025192853 -0.29078785 -0.2359955 -0.18377912 -0.18166749 0.06692332 0.094694264
-0.13678509 0.32698312 -0.1390935 -0.15893653 0.60550404 0.021748953 -0.10276963 0.5323228
-0.16095494 0.07962275 -0.24692208 -0.120850414 0.093081325 -0.50428057 -0.03617463 -0.058942575
-0.31916717 -0.036479075 0.190471 0.12089351 -0.13178058 0.026391499 -0.101797804 -0.17017923
0.077047065 0.011386182 -0.252897 0.09874051 -0.30648553 -0.110241815 -0.025178406 -0.38084605
00000000: ffe7 23be bd91 7e3c 4972 87be 91d1 d7bc
00000010: 4a80 0ebe f65b a2bd d4d0 60be 3ef3 123e
00000020: a3df b3bd 76ba 423e 6417 1c3e 3737 603d
00000030: 626c 8a3e a594 843e a140 97bd 02da 833c
00000040: 36d9 27bc 6f0d c2bc d22c a63e be6b 793e
00000050: 36ad 0c3f a958 553e 7fa0 173f 8fef 563e
00000060: 53a6 af3d 0315 0e3f 148d cc3e 5ffc 4f3d
00000070: 3269 33be a51e 2abc 8a20 c5be e792 e3be
00000080: 6099 dfbc d4c8 97be 7d18 febe fb64 2cbe
00000090: 513e 06bd 7875 33bd 7f20 46be 4aa2 08be
000000a0: b2bf 163e 628a 9dbe 1244 623e 1ac1 b2bb
000000b0: 70dc c7bd 2fb7 39bd e4b5 bbbe b3a1 b0bd
000000c0: 432c bdbd 717d 7e3c 2819 28be 6936 f13c
000000d0: 5d17 7fbe 4e41 99bd ca5b d2be c6e1 653e
000000e0: ee0d f9be 6796 8cbe 07b2 183f 095a b4be
000000f0: 499c 8abe c64a 9f3e ed30 07bf 8646 91bd
00000100: e886 98bd e788 d4bd a8f4 02be e1a9 98be
00000110: 67b4 87bd d3f6 2e3d 9a41 e9be 7db1 afbe
00000120: 14a5 19be 296d 0c3c 13cc 4dbd 2024 7b3c
00000130: ba45 c2bc 9c99 42be 8c3a 41be d18d c63d
00000140: 9aa0 8bbd 8b68 1a3e 82a4 2dbe a45a fa3d
00000150: bfb4 28be 8830 52bd 94a8 d43d 5059 25be
00000160: c862 56be 57e4 bcbd 90d4 d03d 6bbd cfbc
00000170: 24b7 133e fb01 913d bbc0 00bd 7f59 a93e
00000180: 89f4 153e 76a1 c93d fcfd 0d3e 992e 68be
00000190: c78c aa3d 7727 eabb 2fdf 9c3d 6009 3c3e
000001a0: 1b4b 38bd 69e6 95be ea93 933d ab00 42be
000001b0: f469 0abe 17d1 5b3b c65b 55bb 9c0f debe
000001c0: cbc0 b1be 7b83 90bd 60bc e5be 5010 92be
000001d0: 55c7 edbe c1f9 a23d 2903 acbe 7cd8 dabd
000001e0: ed2f c6be 0812 94be 6f62 e6bd 9bc2 d8bd
000001f0: 5d9b 07bf ebfb acbe 1037 7fbe ab45 14be
00000200: 37df d53d 365b 8abe abdf 47be baed 7bbe
00000210: 60a7 76be eaed 04bd f159 a3bd 03f1 b9be
00000220: 4849 563d 41d7 1fbf 5ac5 babe c4e5 4b3e
00000230: 334e 2fbf 4810 ffbd 5c45 3f3e 2207 21bf
00000240: 9505 e13d 9435 1abe 33fd 2e3e 2c98 f7bd
00000250: 575b a4bd e583 523e 3588 66be 9271 a4bd
00000260: 9ecd 16be 6b91 cfbe 1bfd 29bd c893 803d
00000270: fb0d 0abf 7873 993d 4cd9 7bbd 75f2 d3be
00000280: 394e 3d3e 3264 853c e017 25bd c25b 873e
00000290: 036d f03d 8efe eebc 8835 7cbd 85f2 f03d
000002a0: 3387 303d afc1 36bd b022 a83e 828d 3dbd
000002b0: 56ab 48be 8686 583e f47a 1bbe b774 0a3e
000002c0: 9e37 3d3e 4c85 4fbe d75b 173e d975 65bc
000002d0: 1749 42ba 25ac e7bd 7597 c6bc 6dc5 8dbd
000002e0: a4b4 983e 420d 203d 248e 0dbe 7ef5 623e
000002f0: 471d 8fbe 4349 cbbe 1e47 113e 78c7 843e
00000300: a8af edbe a13e 5ebb b0f0 053d 8933 8cbe
00000310: 01ab 563b f4e2 353d 82f9 15bd 68b1 4e3e
00000320: fa74 bb3d 0831 1b3c b640 033e fd2b 89be
00000330: 5769 23be 3b27 a637 c784 d1be 7572 bfbe
00000340: d17e 963d 359f 5a3e 2804 d7be 74ce 523e
00000350: 1939 6a3e 84b0 b1be be9b 29bd d5a0 bebd
00000360: 701d 59be 3e61 cebc 25e2 94be cea8 71be
00000370: 9830 3cbe 0b07 3abe 180f 893d 11ef c13d
00000380: 6411 0cbe 556a a73e 876e 0ebe 42c0 22be
00000390: 5002 1b3f dc2a b23c e278 d2bd 4f46 083f
000003a0: 5fd1 24be 4111 a33d 24d9 7cbe 6c80 f7bd
000003b0: 6ca1 be3d 8818 01bf d92b 14bd c56d 71bd
000003c0: e169 a3be 156b 15bd d40a 433e 0497 f73d
000003d0: 7df1 06be fc32 d83c 5e7b d0bd 7743 2ebe
000003e0: daca 9d3d 1c8d 3a3c b77b 81be 7738 ca3d
000003f0: aceb 9cbe 76c6 e1bd f242 cebc 41fe c2be

conv_block2.bn1.weight f4 [32]
0.8904846 1.1489991 0.95807266 1.1329126 0.8314729 1.0284543 0.9275257 0.7364812
1.109141 0.9625169 1.1188391 1.084123 0.95263606 0.70793617 1.1500745 1.0535611
1.0400223 1.0312114 1.119291 0.7597695 0.9849843 0.97265625 0.7675777 1.1512358
1.1521435 1.1151459 1.2392118 0.8752909 0.72027767 1.1946654 0.99896955 0.971579
00000000: ccf6 633f 6712 933f 4044 753f 4803 913f
00000010: 68db 543f 64a4 833f 5372 6d3f 088a 3c3f
00000020: 55f8 8d3f 8267 763f 1f36 8f3f 8bc4 8a3f
00000030: f5df 733f 4e3b 353f a435 933f 17db 863f
00000040: 731f 853f bcfe 833f ed44 8f3f 4180 423f
00000050: ee27 7c3f 0000 793f f97f 443f b25b 933f
00000060: 7079 933f 1abd 8e3f 7e9e 9e3f 1013 603f
00000070: 1e64 383f ccea 983f 78bc 7f3f 67b9 783f

conv_block2.bn1.bias f4 [32]
-0.35146442 -0.2873337 -0.3738852 -0.53143555 -0.34189937 -0.3779608 -0.15589817 -0.36545226
-0.39248788 -0.16461666 -0.22729221 -0.26581922 -0.23458622 -0.3826647 -0.39812565 -0.3469156
-0.36250198 -0.3172147 -0.3779761 -0.29827747 -0.34572977 -0.2822897 -0.36527035 -0.5396117
-0.37251535 -0.32979858 -0.1571402 -0.23232296 -0.5678402 -0.18072739 -0.34246066 -0.24387994
00000000: 25f3 b3be 671d 93be e26d bfbe 290c 08bf
00000010: 6f0d afbe 1484 c1be c5a3 1fbe 8f1c bbbe
00000020: 2cf4 c8be 4591 28be 4abf 68be 7519 88be
00000030: 5f37 70be a1ec c3be 20d7 cbbe ec9e b1be
00000040: dc99 b9be f769 a2be 1586 c1be d3b7 98be
00000050: 7e03 b1be 4788 90be b704 bbbe fe23 0abf
00000060: 55ba bebe 5cdb a8be 5ce9 20be 12e6 6dbe
00000070: fa5d 11bf 9a10 39be 0157 afbe aabb 79be

conv_block2.bn1.running_mean f4 [32]
-3.0788972 -1.3136431 1.7519057 0.740947 -0.02791517 -4.9595957 -1.9860365 3.609909
-0.3302931 1.9791507 -1.0497146 -2.2154803 2.8495173 2.7775762 -0.4996706 0.56426346
-2.7472641 -0.6724101 -1.2740564 -0.44729805 -0.60844386 -5.2581067 3.9629774 0.098797664
-3.4814844 0.117174715 -2.0224402 -0.23476936 1.1134791 -0.9021211 -0.113549046 -4.6361184
00000000: a70c 45c0 7525 a8bf 723e e03f b4ae 3d3f
00000010: 5bae e4bc 02b5 9ec0 7236 febf c008 6740
00000020: 2d1c a9be cf54 fd3f 0c5d 86bf 6eca 0dc0
00000030: 7e5e 3640 cfc3 3140 d3d4 ffbe 9273 103f
00000040: 2dd3 2fc0 1123 2cbf 4814 a3bf 4004 e5be
00000050: fac2 1bbf 6942 a8c0 6ca1 7d40 6e56 ca3d
00000060: a4d0 5ec0 4cf9 ef3d a96f 01c0 6167 70be
00000070: 7c86 8e3f 69f1 66bf 678c e8bd 155b 94c0

conv_block2.bn1.running_var f4 [32]
6.727499 6.303171 5.915456 3.0612328 11.361901 12.231183 3.405197 6.2110677
8.640735 8.294523 4.9055357 4.2724924 9.70101 3.6433222 2.5781288 3.4060624
7.098851 3.3962386 5.6037407 9.736667 4.4206715 32.70375 12.770006 4.922122
6.5990005 3.3735507 6.489625 3.0576112 5.9574494 4.6025996 2.6799474 27.012691
00000000: ac47 d740 94b3 c940 6a4b bd40 3deb 4340
00000010: 59ca 3541 edb2 4341 bfee 5940 11c1 c640
00000020: 7340 0a41 5eb6 0441 26fa 9c40 42b8 8840
00000030: 5637 1b41 312c 6940 1000 2540 edfc 5940
00000040: ca29 e340 f95b 5940 d851 b340 63c9 1b41
00000050: 2476 8d40 a4d0 0242 f251 4c41 0682 9d40
00000060: 032b d340 41e8 5740 02ab cf40 e7af 4340
00000070: 6da3 be40 7f48 9340 4284 2b40 fe19 d841

conv_block3.conv1.weight f4 [64, 32, 3, 3]
0.3317151 0.1686024 0.14119853 -0.0072798235 -0.18882994 -0.13557455 0.1860721 -0.26411086
-0.21172939 -0.031463902 -0.23260356 -0.31573644 0.019650357 -0.19268078 -0.42077005 0.064190045
0.092331626 -0.16483097 -0.04921319 0.0007039498 -0.10471257 -0.1433948 -0.12423668 -0.06371906
-0.08907847 -0.23189482 -0.055313878 -0.06232992 -0.15211 -0.065653786 -0.064582914 -0.038944338
0.22130899 -0.10879579 0.006038771 -0.015524633 -0.22789274 -0.14534132 -0.21002029 0.0661505
0.05773635 0.073506966 0.07211544 -0.18938029 0.16609749 0.07138485 -0.1788659 0.009652501
-0.13285637 0.07596221 -0.03491626 -0.16126269 0.051306523 0.16642146 0.14581528 0.2207569
-0.42902118 -0.0064291237 0.22289957 0.07463473 0.026551904 0.04019121 -0.12289183 -0.22457756
-0.031468138 0.1428677 -0.25673276 0.023870325 0.027346754 -0.20091866 -0.08344374 0.011561713
0.1660518 -0.057450213 -0.21797612 0.1701427 -0.06716207 -0.116146944 -0.21066354 -0.27448183
-0.24116392 -0.10639924 -0.19688627 -0.14488013 0.03407966 -0.20336677 -0.2808905 -0.0012054343
-0.15762092 -0.1386338 0.16462246 -0.3624212 0.052397482 0.42749855 -0.17140934 0.07066918
0.23965333 0.02362934 0.063869104 0.009858689 -0.19341987 -0.10131019 0.13956462 -0.13000187
0.23645943 0.06903542 -0.15577857 0.1309115 -0.14471668 -0.07912032 -0.22209072 -0.12842585
-0.1632955 -0.20451292 -0.11504185 -0.17371656 -0.068214625 -0.23542543 0.011399905 -0.02403055
-0.06569708 0.03972045 0.16931532 -0.28499788 -0.058611862 -0.06653036 0.21856779 -0.1754062
-0.010759772 0.10009967 -0.26090354 -0.093453676 0.4641441 -0.04005682 -0.23204218 -0.17193624
0.22035627 -0.062939905 -0.044466235 0.2101253 0.05143341 -0.093905814 0.14835146 0.16235836
-0.26044315 -0.35398412 -0.20206253 -0.28814664 -0.49455005 -0.5107719 -0.14339103 -0.087963864
-0.07125068 -0.1830977 0.031097664 -0.40079445 0.031036122 0.006163113 0.079153016 -0.18670833
0.024883082 0.09037796 -0.15968972 -0.15747198 -0.05064508 -0.058705807 0.016919276 -0.2111174
-0.10273909 0.2181858 -0.013831685 0.08111325 -0.2725356 -0.10972786 -0.2032865 -0.19805296
-0.14715476 0.0046412298 -0.23987581 -0.0948335 0.006441886 -0.06474055 -0.34476018 -0.07953529
0.031340253 -0.119648196 0.07331599 0.11463897 0.056020003 0.1974489 0.0037835531 -0.053530645
0.06286959 -0.10145787 -0.008247257 0.0659997 -0.052341055 -0.17709617 -0.27968612 -0.07812901
0.08112532 -0.23589912 0.13074355 0.34584808 -0.14245586 -0.016474737 0.11301893 0.11998216
-0.030037245 -0.010880998 0.19288898 -0.017783873 -0.10392513 0.14898688 -0.085874386 -0.04268237
-0.04337158 -0.16711159 -0.21343124 -0.24207999 -0.3435755 -0.37102938 0.04724739 -0.12600291
-0.23617503 0.012526912 -0.5133359 -0.10669742 0.080174305 -0.14690186 0.32291993 -0.023516089
0.010406873 0.20477048 0.1934126 -0.2690547 0.1489011 0.21253161 -0.67379344 -0.05149041
0.15913323 -0.19772767 -0.16662878 0.14744806 -0.14091752 -0.08411125 0.29579154 0.03725245
0.012849314 0.031134017 -0.08865485 -0.25080714 -0.38603184 -0.2012246 0.028797872 -0.29382214
00000000: 90d6 a93e 1ca6 2c3e 5996 103e 968b eebb
00000010: a35c 41be 0ed4 0abe af89 3e3e 8a39 87be
00000020: 97cf 58be 4be0 00bd a12f 6ebe 35a8 a1be
00000030: c9f9 a03c 1c4e 45be 2c6f d7be 1276 833d
00000040: 5d18 bd3d 73c9 28be c593 49bd 4589 383a
00000050: 8b73 d6bd 16d6 12be cd6f febd 237f 82bd
00000060: c66e b6bd d675 6dbe ce90 62bd a84d 7fbd
00000070: b9c2 1bbe 7e75 86bd 0c44 84bd 1984 1fbd
00000080: d39e 623e 54d0 debd e2e0 c53b 085b 7ebc
00000090: b75c 69be 5bd4 14be 8f0f 57be ea79 873d
000000a0: f37c 6c3d d28a 963d 43b1 933d e8ec 41be
000000b0: 7615 2a3e 3832 923d 9f28 37be 8625 1e3c
000000c0: 800b 08be 1392 9b3d 5a04 0fbd 0c22 25be
000000d0: ca26 523d 636a 2a3e 9a50 153e 190e 623e
000000e0: aaa8 dbbe 66ab d2bb c93f 643e 18da 983d
000000f0: 6183 d93c 8a9f 243d b6ae fbbd a9f7 65be
00000100: bce4 00bd e94b 123e 7a72 83be b38b c33c
00000110: 4d06 e03c 9fbd 4dbe 8de4 aabd 576d 3d3c
00000120: 7c09 2a3e ea50 6bbd 2235 5fbe e339 2e3e
00000130: 448c 89bd 73de edbd 2fb8 57be e288 8cbe
00000140: adf3 76be d8e7 d9bd 8e9c 49be 755b 14be
00000150: 1d97 0b3d 613f 50be e1d0 8fbe aaff 9dba
00000160: 6167 21be 05f6 0dbe ca92 283e 468f b9be
00000170: be9e 563d 17e1 da3e ee85 2fbe 01bb 903d
00000180: af67 753e 5192 c13c cecd 823d 5786 213c
00000190: dc0f 46be b87b cfbd 07ea 0e3e 361f 05be
000001a0: 6c22 723e 7162 8d3d 6b84 1fbe aa0d 063e
000001b0: 9c30 14be d609 a2bd c06b 63be 1182 03be
000001c0: f036 27be d66b 51be 109b ebbd c1e2 31be
000001d0: 1cb4 8bbd 5d13 71be abc6 3a3c b7db c4bc
000001e0: 318c 86bd e9b1 223d ff60 2d3e 3eeb 91be
000001f0: fe12 70bd 1241 88bd 3cd0 5f3e af9d 33be
00000200: c149 30bc 0e01 cd3d 2695 85be a464 bfbd
00000210: 4ca4 ed3e 9f12 24bd 779c 6dbe 0e10 30be
00000220: 13a5 613e a3e6 80bd 3a22 36bd 162b 573e
00000230: d7ab 523d b151 c0bd 72e9 173e 4541 263e
00000240: ce58 85be 683d b5be 7be9 4ebe f587 93be
00000250: aa35 fdbe f2c1 02bf 19d5 12be 6626 b4bd
00000260: e0eb 91bd f77d 3bbe 87c0 fe3c ee34 cdbe
00000270: 773f fe3c f0f3 c93b fa1a a23d 7830 3fbe
00000280: 9bd7 cb3c 1418 b93d b485 23be 5640 21be
00000290: 3771 4fbd 8075 70bd 4b9a 8a3c 292f 58be
000002a0: df68 d2bd 196c 5f3e 4b9e 62bc b41e a63d
000002b0: c989 8bbe 00b9 e0bd 562a 50be 65ce 4abe
000002c0: bdaf 16be 7515 983b 01a2 75be 1138 c2bd
000002d0: 7516 d33b b296 84bd 6884 b0be 66e3 a2bd
000002e0: a35e 003d 1d0a f5bd b226 963d d6c7 ea3d
000002f0: 3b75 653d 0b30 4a3e 7df5 773b f342 5bbd
00000300: c6c1 803d 25c9 cfbd 811f 07bc da2a 873d
00000310: 9363 56bd b358 35be 0533 8fbe 1a02 a0bd
00000320: 0825 a63d 8a8f 71be a3e1 053e 0013 b13e
00000330: f3df 11be 07f6 86bc 7876 e73d 35b9 f53d
00000340: ab10 f6bc 3746 32bc b084 453e 7caf 91bc
00000350: b3d6 d4bd 0490 183e e9de afbd b5d3 2ebd
00000360: 66a6 31bd 4d1f 2bbe b88d 5abe d1e3 77be
00000370: 21e9 afbe 90f7 bdbe 7b86 413d e806 01be
00000380: ded7 71be ad3d 4d3c fb69 03bf 2d84 dabd
00000390: 6d32 a43d 716d 16be c355 a53e d0a4 c0bc
000003a0: 9781 2a3c 5aaf 513e f40d 463e 8ac1 89be
000003b0: 8879 183e e3a1 593e ba7d 2cbf 9ce7 52bd
000003c0: d2f3 223e 1f79 4abe bca0 2abe a0fc 163e
000003d0: af4c 10be 8542 acbd fd71 973e 0696 183d
000003e0: ee85 523c c40c ff3c ad90 b5bd cb69 80be
000003f0: f7a5 c5be d20d 4ebe 84e9 eb3c db6f 96be

conv_block3.bn1.weight f4 [64]
0.7684686 0.71249896 0.68840104 0.7135284 0.7473092 0.6660736 0.7022533 0.68105805
0.58073485 0.7101021 0.8009104 0.641 0.80784523 0.65595555 0.64039713 0.6525581
0.59484065 0.6580245 0.6370624 0.7792207 0.6098749 0.70214605 0.6450216 0.54378206
0.60930437 0.67446756 0.7280676 0.80071145 0.6787669 0.5641754 0.61668485 0.6210763
0.7024785 0.6063103 0.64997137 0.6490952 0.65535 0.5855356 0.57819396 0.743743
0.70746714 0.6246514 0.8230592 0.6744573 0.82090133 0.7692205 0.6359743 0.6465891
0.59025866 0.6809883 0.6068379 0.78468364 0.5505382 0.69352 0.7319449 0.5817238
0.673318 0.5510708 0.6539155 0.68802696 0.63669246 0.6299176 0.6443005 0.60680383
00000000: 5cba 443f 5566 363f 0d3b 303f cca9 363f
00000010: a84f 3f3f cd83 2a3f dfc6 333f d259 2e3f
00000020: 0aab 143f 40c9 353f 7708 4d3f 9318 243f
00000030: f2ce 4e3f b4ec 273f 11f1 233f 0c0e 273f
00000040: 7a47 183f 4b74 283f 8516 233f 027b 473f
00000050: c320 1c3f d8bf 333f 2320 253f 4d35 0b3f
00000060: 5ffb 1b3f e8a9 2c3f a362 3a3f 6dfb 4c3f
00000070: abc3 2d3f cd6d 103f 0fdf 1d3f dbfe 1e3f
00000080: a2d5 333f 2737 1b3f 8664 263f 1a2b 263f
00000090: 05c5 273f a9e5 153f 8504 143f f165 3e3f
000000a0: 911c 353f 27e9 1f3f 02b4 523f 3ca9 2c3f
000000b0: 9726 523f a2eb 443f 36cf 223f dd86 253f
000000c0: 311b 173f 4055 2e3f bb59 1b3f 07e1 483f
000000d0: 12f0 0c3f 878a 313f be60 3b3f daeb 143f
000000e0: 925e 2c3f fa12 0d3f 0267 273f 8922 303f
000000f0: 47fe 223f 4842 213f e1f0 243f 7f57 1b3f

conv_block3.bn1.bias f4 [64]
-0.31565762 -0.24307367 -0.3541481 -0.44927818 -0.33832657 -0.42687157 -0.37397134 -0.35408545
-0.36638618 -0.27157003 -0.32298094 -0.44921133 -0.34958354 -0.37469622 -0.41202664 -0.39455628
-0.3351598 -0.26399016 -0.32548046 -0.3518526 -0.5056602 -0.23611563 -0.38925624 -0.53897727
-0.34277517 -0.28146723 -0.3929826 -0.0961731 -0.4033682 -0.3357664 -0.37243715 -0.40209195
-0.34671193 -0.47570828 -0.34584808 -0.4882 -0.3629468 -0.3513365 -0.35747296 -0.37112993
-0.3520459 -0.36661434 -0.3554972 -0.36826915 -0.2103113 -0.3638764 -0.49222416 -0.35690722
-0.40225452 -0.4092155 -0.50591207 -0.42274183 -0.49467883 -0.31285965 -0.3859133 -0.48768163
-0.39154744 -0.38053808 -0.36868203 -0.41707155 -0.35655236 -0.4421916 -0.27490595 -0.5007065
00000000: e09d a1be 4ee8 78be e652 b5be ca07 e6be
00000010: 2439 adbe e98e dabe 2c79 bfbe b04a b5be
00000020: f896 bbbe 3a0b 8bbe c25d a5be 07ff e5be
00000030: 9dfc b2be 2fd8 bfbe 28f5 d2be 4803 cabe
00000040: 119a abbe b829 87be 60a5 a6be 0626 b4be
00000050: f272 01bf 4cc8 71be 984c c7be 6afa 09bf
00000060: 3a80 afbe 791c 90be 0435 c9be 67f6 c4bd
00000070: 4786 cebe 93e9 abbe 15b0 bebe ffde cdbe
00000080: 3a84 b1be 0990 f3be 0013 b1be 5af5 f9be
00000090: 2ad4 b9be 61e2 b3be b206 b7be be04 bebe
000000a0: 5c3f b4be e0b4 bbbe bb03 b6be c68d bcbe
000000b0: d85b 57be 024e babe ce04 fcbe 8bbc b6be
000000c0: 4ef4 cdbe b284 d1be 7483 01bf 9e71 d8be
000000d0: 8b46 fdbe 242f a0be 6e96 c5be 68b1 f9be
000000e0: e878 c8be e3d5 c2be e4c3 bcbe 678a d5be
000000f0: 088e b6be f066 e2be 79c0 8cbe 4d2e 00bf

conv_block3.bn1.running_mean f4 [64]
-3.4497113 -6.2771215 0.7604341 -1.6097188 -1.3918972 -3.130418 -0.10506757 -1.0136453
-2.0908823 0.07303196 1.9207002 -1.3753558 -1.4929824 -3.7860518 -2.464761 1.8043097
-2.1930578 -0.31488067 4.3972607 -1.0165983 1.7811571 -4.9754696 -2.610612 4.3915257
-2.6272645 -4.252723 -3.3235962 -2.02068 -0.8055419 -1.7214662 -4.096915 -3.1170306
-1.241256 -0.8686905 -2.9775825 0.24965292 -2.0002232 -0.8248744 -3.8652022 -0.2501719
-2.502634 -2.5245025 -2.356127 2.9638216 1.2223892 0.40933484 -2.1429994 -1.1733742
-1.5804759 -2.0255597 0.8814883 0.50916874 1.4763803 -3.122611 -0.70428 0.15663616
-1.3893605 1.1279001 -0.55884564 2.4533663 -1.5349013 -2.5380905 2.6721666 -1.3025331
00000000: 12c8 5cc0 2ede c8c0 cfab 423f 440b cebf
00000010: b029 b2bf c558 48c0 ab2d d7bd 21bf 81bf
00000020: 04d1 05c0 c891 953d 81d9 f53f a90b b0bf
00000030: 0c1a bfbf ac4e 72c0 a5be 1dc0 9ff3 e63f
00000040: 0f5b 0cc0 0a38 a1be 5cb6 8c40 e51f 82bf
00000050: f5fc e33f 0c37 9fc0 4414 27c0 6187 8c40
00000060: 1a25 28c0 4f16 88c0 cdb5 54c0 d252 01c0
00000070: fe37 4ebf 0159 dcbf ed19 83c0 6e7d 47c0
00000080: 7ae1 9ebf 8062 5ebf b690 3ec0 04a5 7f3e
00000090: a803 00c0 f82a 53bf 795f 77c0 8816 80be
000000a0: 282b 20c0 7391 21c0 c9ca 16c0 41af 3d40
000000b0: 4077 9c3f 5694 d13e e726 09c0 2031 96bf
000000c0: 094d cabf c5a2 01c0 38a9 613f e258 023f
000000d0: 08fa bc3f dcd8 47c0 b24b 34bf 3b65 203e
000000e0: 91d6 b1bf 085f 903f 8210 0fbf f403 1d40
000000f0: a577 c4bf 1370 22c0 c704 2b40 68b9 a6bf

conv_block3.bn1.running_var f4 [64]
11.130894 43.294994 8.237063 6.867555 6.3906326 16.616478 11.103331 7.9166474
10.4276495 9.174921 8.743054 8.321922 12.070753 12.584008 26.838701 10.683804
11.492129 10.517403 10.643877 12.596357 6.0774665 16.117502 9.917495 15.325589
17.403423 17.89182 10.105592 8.775337 9.821796 11.219519 12.021688 13.45818
7.544489 8.165503 12.271643 6.258614 7.6703935 10.5513 11.36457 7.375319
8.14769 7.4210753 10.755155 8.119791 8.773565 4.991395 5.1802444 17.7271
9.377096 10.84892 8.917587 4.44055 9.114188 11.748514 13.607401 6.68327
12.593193 7.3551726 6.3447475 9.732977 21.577589 19.668978 16.434788 14.242617
00000000: 2418 3241 132e 2d42 03cb 0341 03c3 db40
00000010: 1080 cc40 8cee 8441 3ea7 3141 2d55 fd40
00000020: a7d7 2641 7acc 1241 8de3 0b41 9826 0541
00000030: ce21 4141 1958 4941 a9b5 d641 dcf0 2a41
00000040: c3df 3741 4847 2841 524d 2a41 ae8a 4941
00000050: 9b7a c240 a5f0 8041 0fae 1e41 9d35 7541
00000060: 363a 8b41 7322 8f41 81b0 2141 c867 0c41
00000070: 1426 1d41 2683 3341 d658 4041 b554 5741
00000080: 746c f140 e6a5 0241 a658 4441 9146 c840
00000090: dd73 f540 20d2 2841 47d5 3541 9d02 ec40
000000a0: f05c 0241 7379 ed40 1d15 2c41 aaea 0141
000000b0: 8660 0c41 82b9 9f40 90c4 a540 1ad1 8d41
000000c0: 9608 1641 2d95 2d41 70ae 0e41 fc18 8e40
000000d0: b7d3 1141 eaf9 3b41 eab7 5941 59dd d540
000000e0: b87d 4941 935d eb40 2c08 cb40 46ba 1b41
000000f0: e79e ac41 115a 9d41 727a 8341 c2e1 6341

k_3_freq_to_1.weight f4 [1, 6]
0.3665077 -0.38860384 0.18801117 -0.085884035 -0.3794183 0.36344182
00000000: e6a6 bb3e 15f7 c6be 0086 403e f8e3 afbd
00000010: 1e43 c2be 0c15 ba3e

conv_block1_kernel_5.conv1.weight f4 [16, 1, 5, 5]
-0.4549343 0.78669655 0.104630016 -0.24996877 0.38142842 0.11269925 0.7978129 0.10253021
0.16681202 -0.2123445 -0.1424204 0.25574794 0.19764782 -0.18458278 -0.16001803 0.08694848
0.53625023 0.008662776 -0.0065402016 0.3556334 -0.47072998 0.23154265 -0.2861074 0.18441512
-0.30008844 -0.2798481 -0.1337618 -0.615901 -0.18016864 0.29421532 0.11189856 0.16380806
-0.5430632 -0.43702862 0.0006583239 0.036156002 -0.25553402 -0.24058625 -0.39028415 0.41497985
-0.25456357 0.46324673 -0.01693303 0.3570604 -0.03642634 -0.033903047 0.41100168 0.3197476
0.18120146 0.5015681 -0.38765603 0.4093978 0.5996109 -0.017469829 -0.12304332 -0.6471956
0.12660907 0.14284976 -0.20279706 -0.12860249 -0.3826782 0.3351831 -0.021417774 -0.07863672
-0.10839364 -0.67650944 -0.22644916 0.21683559 0.37955675 0.43992445 -0.51211435 -0.38772792
0.4509699 -0.36030528 0.0028933096 0.24534689 0.48279455 -0.25728035 0.41846257 -0.10622047
0.6396818 0.53309155 0.14314248 0.31687257 0.45403102 -0.3649684 0.4391433 -0.19517103
-0.055483893 -0.37146494 -0.30161044 -0.39960018 -0.116559796 0.07950633 0.33065662 -0.38023335
-0.57811636 -0.20954074 -0.29287085 -0.45707652 -0.53886527 0.3791896 -0.11997265 -0.43109348
0.18021612 -0.32556412 -0.41237798 -0.17653504 -0.34496894 -0.07451826 -0.061650917 0.12940429
-0.062970966 0.51752394 0.25509354 -0.5344048 -0.03629448 0.38172075 0.08484297 0.5559882
0.40343097 -0.31749454 -0.09545191 0.5614248 -0.10857653 -0.03595758 -0.097211994 -0.14967321
-0.5260058 0.53307414 -0.4030569 0.32959962 -0.3403528 -0.30255798 0.35905564 -0.37373438
-0.38711935 0.27232057 -0.16728182 0.65120673 0.12765755 0.15980907 0.118843995 0.3180716
0.3077812 -0.42161268 -0.34559345 -0.36128992 0.11471153 0.6314076 0.4110776 0.19557822
0.14345497 0.23152834 0.1444342 -0.62769824 0.11141523 -0.37241572 -0.12596557 -0.38990462
-0.07072177 0.11096624 0.2538114 0.15629463 -0.016613953 0.5511002 0.07443063 0.05539512
0.43959042 -0.30233172 -0.37248692 -0.55310744 0.25155896 -0.35363176 0.03274633 -0.33132535
0.30737346 0.6060627 0.28254908 0.38522056 -0.13862088 0.5394899 0.110514395 0.09345617
-0.36271605 0.2015698 0.1144538 -0.21805134 0.20961358 0.26946956 0.3701318 -0.24555087
-0.15757698 -0.56125844 -0.033608146 -0.42055765 -0.31213644 -0.4007958 0.11068124 -0.50403106
-0.21270484 0.23381828 0.5541708 0.010054565 -0.10244878 0.06397242 0.2943794 0.31484744
0.48100275 -0.47835204 -0.5981765 -0.2651998 -0.034417573 0.22991887 0.17580014 -0.2096836
0.21741945 0.5610855 0.16865025 -0.11600636 -0.5487938 -0.18448037 -0.18376595 0.051042598
-0.054639082 -0.09713135 -0.23806958 -0.15003641 0.10703288 -0.033277106 0.5250171 0.10903419
-0.17448 0.42428473 -0.19595726 0.35957024 -0.7977678 0.3473936 0.07265299 -0.283518
0.06920696 -0.09065716 0.466833 0.25964785 0.30975625 0.13807803 -0.6318262 -0.18817867
0.13291067 -0.43431395 0.0072951904 0.16317676 -0.5140166 -0.21049812 0.0026143368 0.20708597
00000000: 26ed e8be f264 493f 4348 d63d d0f7 7fbe
00000010: 964a c33e ddce e63d 773d 4c3f 5cfb d13d
00000020: c5d0 2a3e d670 59be a7d6 11be 65f1 823e
00000030: 3164 4a3e 4503 3dbe c4db 23be 0b12 b23d
00000040: b247 093f 51ee 0d3c 304f d6bb 9515 b63e
00000050: 8503 f1be 8419 6d3e ab7c 92be 51d7 3c3e
00000060: 31a5 99be 4048 8fbe daf8 08be b0ab 1dbf
00000070: 217e 38be 64a3 963e 122b e53d 4dbd 273e
00000080: 3106 0bbf 37c2 dfbe 5e93 2c3a 5118 143d
00000090: 5bd5 82be 3e5c 76be 53d3 c7be 3d78 d43e
000000a0: 2856 82be ad2e ed3e 23b7 8abc 9fd0 b63e
000000b0: c933 15bd ecdd 0abd d06e d23e f5b5 a33e
000000c0: e08c 393e c466 003f da7a c6be 979c d13e
000000d0: 1a80 193f e31c 8fbc 23fe fbbd 9cae 25bf
000000e0: cfa5 013e 3547 123e 08aa 4fbe 5fb0 03be
000000f0: 66ee c3be 1f9d ab3e 5474 afbc 4a0c a1bd
00000100: 7cfd ddbd b92f 2dbf 4ae2 67be 260a 5e3e
00000110: 4355 c23e c73d e13e ed19 03bf 4684 c6be
00000120: 87e5 e63e ef79 b8be ae9d 3d3b 373c 7b3e
00000130: d930 f73e 40ba 83be ba40 d63e 1e8a d9bd
00000140: 30c2 233f b078 083f f193 123e 1f3d a23e
00000150: c176 e83e 23dd babe 64d7 e03e eada 47be
00000160: 1443 63bd a730 bebe af6c 9abe 6598 ccbe
00000170: e7b6 eebd 37d4 a23d d34b a93e f2ad c2be
00000180: 6fff 13bf d991 56be 2bf3 95be ef05 eabe
00000190: 13f3 09bf 2425 c23e 39b4 f5bd 49b8 dcbe
000001a0: 938a 383e 57b0 a6be 3523 d3be 9ac5 34be
000001b0: c59f b0be 089d 98bd ac85 7cbd 8f82 043e
000001c0: ecf6 80bd 737c 043f 9f9b 823e c1ce 08bf
000001d0: 85a9 14bd e770 c33e 27c2 ad3d 3e55 0e3f
000001e0: 818e ce3e a58e a2be 4a7c c3bd 89b9 0f3f
000001f0: 5f5d debd 4148 13bd 1517 c7bd ef43 19be
00000200: 51a8 06bf 8c77 083f 795d cebe 48c1 a83e
00000210: b942 aebe e1e8 9abe 24d6 b73e 1d5a bfbe
00000220: 8234 c6be 9a6d 8b3e ed4b 2bbe 7cb5 263f
00000230: a9b8 023e fda4 233e 7b64 f33d 48da a23e
00000240: 7f95 9d3e 9edd d7be a0f1 b0be fefa b8be
00000250: e1ed ea3d eea3 213f c378 d23e a845 483e
00000260: dce5 123e c415 6d3e 8fe6 133e d5b0 20bf
00000270: ab2d e43d 46ad bebe 1efd 00be 94a1 c7be
00000280: 93d6 90bd 4542 e33d 91f3 813e b30b 203e
00000290: fc19 88bc e714 0d3f 166f 983d fee5 623d
000002a0: ff11 e13e 39cb 9abe 9bb6 bebe 7398 0dbf
000002b0: 56cc 803e 390f b5be 0421 063d 7aa3 a9be
000002c0: 0e60 9d3e ed26 1b3f 46aa 903e a13b c53e
000002d0: a2f2 0dbe 031c 0a3f 5f55 e23d f365 bf3d
000002e0: ebb5 b9be 5068 4e3e c166 ea3d da48 5fbe
000002f0: f1a4 563e eaf7 893e ea81 bd3e b071 7bbe
00000300: dc5b 21be a2ae 0fbf b2a8 09bd 5553 d7be
00000310: 59d0 9fbe 1b35 cdbe d9ac e23d 2e08 01bf
00000320: 4ccf 59be 0f6e 6f3e 23de 0d3f e7bb 243c
00000330: aad0 d1bd f903 833d e6b8 963e af33 a13e
00000340: fe45 f63e 8fea f4be 1822 19bf 45c8 87be
00000350: 71f9 0cbd da6f 6b3e f404 343e 4cb7 56be
00000360: 34a3 5e3e 4da3 0f3f a7b2 2c3e be94 edbd
00000370: c07d 0cbf 6ce8 3cbe 242d 3cbe 0b12 513d
00000380: 3bcd 5fbd cdec c6bd 83c8 73be 25a3 19be
00000390: 0e34 db3d 934d 08bd 8567 063f 514d df3d
000003a0: e3aa 32be d93b d93e 05a9 48be 9719 b83e
000003b0: 833a 4cbf 93dd b13e 17cb 943d 4529 91be
000003c0: 61bc 8d3d 76aa b9bd bc04 ef3e 90f0 843e
000003d0: 5f98 9e3e 5464 0d3e 5dbf 21bf e9b1 40be
000003e0: bc19 083e 665e debe 7e0c ef3b cf17 273e
000003f0: 9896 03bf d28c 57be 4b55 2b3b 580e 543e

conv_block1_kernel_5.bn1.weight f4 [16]
0.7187168 0.9479319 0.7373707 1.1632553 0.76365316 0.8611822 0.97591025 1.1430949
0.73234266 1.2064675 1.0542184 1.2770658 0.8054819 0.9808496 1.1645801 0.92430276
00000000: d3fd 373f aaab 723f 54c4 3c3f 8de5 943f
00000010: c67e 433f 7076 5c3f 41d5 793f ef50 923f
00000020: cf7a 3b3f 876d 9a3f a1f0 863f e476 a33f
00000030: 1034 4e3f f618 7b3f f610 953f 1b9f 6c3f

conv_block1_kernel_5.bn1.bias f4 [16]
-0.38426763 -0.24988383 -0.36671188 -0.6836469 -0.18155049 -0.18438025 -0.5705594 -0.60784507
-0.09581397 -0.44631884 -0.7155673 -0.45511892 -0.25661388 -0.5271341 -0.358842 -0.062546805
00000000: babe c4be 8ce1 7fbe a9c1 bbbe 7c03 2fbf
00000010: 5fe8 39be 2dce 3cbe 2e10 12bf bc9b 1bbf
00000020: 1d3a c4bd e783 e4be 6b2f 37bf 5905 e9be
00000030: e562 83be 43f2 06bf 23ba b7be 8a18 80bd

conv_block1_kernel_5.bn1.running_mean f4 [16]
0.06907221 -0.0024633398 -0.042258248 -0.00083972036 -0.005073933 0.0072726556 -0.0022626931 -0.0038516377
0.011984615 -0.002891513 -0.0031438519 0.0073872535 1.9233643e-05 -0.0036713434 -0.013319857 -0.0033907904
00000000: bb75 8d3d fc6f 21bb fc16 2dbd ae20 5cba
00000010: 3c43 a6bb 754f ee3b b149 14bb c26b 7cbb
00000020: 1e5b 443c 8a7f 3dbb 1509 4ebb c610 f23b
00000030: ef57 a137 ec9a 70bb 883b 5abc 0638 5ebb

conv_block1_kernel_5.bn1.running_var f4 [16]
3.164192 0.7543973 2.1352663 0.6856842 0.86204696 1.6191053 0.22298332 0.49812916
1.1161343 0.38205397 0.29920915 0.47219905 1.0034333 0.58311474 1.0788834 0.7188888
00000000: 1f82 4a40 2e20 413f 34a8 0840 0089 2f3f
00000010: 1caf 5c3f d83e cf3f bd55 643e c90a ff3e
00000020: 7ddd 8e3f 949c c33e f131 993e 13c4 f13e
00000030: 8170 803f 0247 153f da18 8a3f 1909 383f

conv_block2_kernel_5.conv1.weight f4 [32, 16, 5, 5]
0.051142585 0.05812096 -0.3572747 -0.1672977 -0.51222676 0.09975174 0.112686485 -0.100394614
-0.0020725564 -0.30251527 0.07883659 0.072623074 -0.13175082 -0.041656215 -0.065245755 -0.012469056
-0.14302175 -0.34751996 -0.20832212 -0.037485346 -0.035067197 -0.13862504 0.0304578 0.09618935
0.1885797 0.22509933 0.11462307 -0.0032218248 0.072658226 0.22761796 -0.320182 -0.29622447
-0.15224625 -0.09878618 0.08953131 -0.51322335 -0.51757145 -0.13234815 -0.09928187 -0.12776619
-0.25895578 -0.2821342 0.20936315 0.21056965 -0.04933103 -0.1443799 -0.09826982 0.31801206
0.16646568 0.02343291 -0.07907029 -0.117616855 -0.2763162 -0.14333303 -0.33395553 0.031167949
-0.11585541 -0.20295632 -0.2998925 -0.15154752 0.1404399 -0.0030785475 0.12226565 -0.01356299
0.096595705 0.16905227 0.1569861 0.22290976 0.11789112 0.12442277 0.23977433 0.23090819
0.45221397 0.30481598 0.262341 0.13501123 0.15610018 -0.029111348 0.21619146 0.31512722
-0.071431085 0.344491 0.15334778 0.05362364 0.11807245 0.23246014 0.2736662 0.015318869
0.1730318 0.26034072 0.050484594 -0.12502834 -0.21770896 0.06503659 -0.41455045 -0.34262517
-0.41535777 0.04402053 0.24250121 0.019450175 0.1870845 -0.12342866 -0.06602724 -0.019431444
0.28681695 -0.00076858955 -0.0022063588 -0.29858136 -0.41728458 -0.07314717 -0.13865608 -0.37272346
-0.24335444 -0.111665614 -0.18678093 -0.037876938 -0.2595164 0.13882892 0.098205194 0.040486243
0.18356545 0.07719905 0.3768709 0.16398056 0.12221586 0.104603164 -0.41161212 -0.5289633
-0.20588455 0.18649642 0.10234987 -0.29910725 -0.49617136 -0.3100345 -0.08818786 -0.020049412
-0.3196867 -0.2358071 -0.049035624 -0.031440098 -0.046621513 -0.2995986 0.18738796 0.24620786
-0.11567712 0.021868566 -0.021197453 0.30893475 0.13162486 -0.02546674 0.076118454 -0.08179716
-0.04299791 -0.060645267 -0.41524673 0.20237675 0.017516753 0.0196978 0.100016095 -0.23614126
-0.046543032 -0.07419058 -0.023302006 0.23723039 0.02897498 -0.15483204 -0.35165787 -0.18470015
0.317045 -0.024704976 -0.030216703 -0.36627144 0.1428685 0.39211386 0.14280474 -0.020389082
-0.034942154 -0.21007334 -0.09809816 0.025061365 0.08562843 0.30307308 0.018158996 -0.042433947
0.113949224 0.04119097 0.047022432 -0.018623952 -0.11219726 -0.057883535 0.035454687 -0.07255311
0.17928001 -0.03976516 -0.23187159 -0.28817135 -0.20585038 0.117914736 0.17145593 0.12984526
-0.02843217 -0.09772347 -0.40482515 -0.34887388 -0.0674641 0.030545 0.10124506 -0.20751947
-0.20045936 -0.16978478 -0.056351803 0.23056625 -0.24213597 -0.10001815 0.23602487 0.0013812077
-0.03186534 -0.07902808 0.055975918 -0.010714231 0.12182633 -0.11983381 0.024795298 0.18949483
0.14781095 -0.08604968 -0.19639224 0.42079213 -0.18546072 -0.051719658 0.06574625 0.06665269
0.366668 -0.05731142 -0.014889939 0.06741917 -0.104476586 0.23769061 -0.04361996 -0.15419033
0.0005311608 -0.036434747 -0.12670583 0.068736404 0.10529459 0.04948707 -0.017735036 0.20218378
0.37939852 0.07869047 0.007070551 -0.0705995 0.09332424 -0.0548611 0.029922655 0.18100931
00000000: e37a 513d 3e10 6e3d b6ec b6be 1750 2bbe
00000010: 4b21 03bf a44a cc3d 2cc8 e63d b19b cdbd
00000020: bad3 07bb 48e3 9abe 1475 a13d 68bb 943d
00000030: b0e9 06be b59f 2abd 919f 85bd 034b 4cbc
00000040: 4b74 12be 23ee b1be 6552 55be 3c8a 19bd
00000050: 9fa2 0fbd b9f3 0dbe a382 f93c ecfe c43d
00000060: 091b 413e 7080 663e 80bf ea3d 4025 53bb
00000070: d6cd 943d af14 693e e5ee a3be bcaa 97be
00000080: 71e6 1bbe 6950 cabd 315c b73d 9b62 03bf
00000090: 907f 04bf 4686 07be 4b54 cbbd 24d5 02be
000000a0: da95 84be e573 90be 4b63 563e 929f 573e
000000b0: 560f 4abd 53d8 13be b041 c9bd 7ad2 a23e
000000c0: fb75 2a3e 60f6 bf3c 9bef a1bd 1be1 f0bd
000000d0: 5179 8dbe e5c5 12be 38fc aabe ed53 ff3c
000000e0: 9a45 edbd c8d3 4fbe 828b 99be 462f 1bbe
000000f0: 7acf 0f3e 75c1 49bb 6a66 fa3d 4e37 5ebc
00000100: f8d3 c53d 0a1c 2d3e f7c0 203e 7542 643e
00000110: e670 f13d 5ed1 fe3d 6787 753e 3273 6c3e
00000120: 9788 e73e d710 9c3e 8f51 863e 6240 0a3e
00000130: bad8 1f3e ec7a eebc 4b61 5d3e 5b58 a13e
00000140: 764a 92bd 2061 b03e 3307 1d3e 76a4 5b3d
00000150: f8cf f13d 080a 6e3e fa1d 8c3e fefb 7a3c
00000160: 402f 313e 614b 853e efc8 4e3d 6e07 00be
00000170: 19ef 5ebe e731 853d f53f d4be 916c afbe
00000180: c6a9 d4be df4e 343d 3d52 783e f955 9f3c
00000190: 1493 3f3e 2ac8 fcbd 4a39 87bd b12e 9fbc
000001a0: acd9 923e 2c7b 49ba 8f98 10bb a8df 98be
000001b0: 53a6 d5be 2fce 95bd dcfb 0dbe 9cd5 bebe
000001c0: e831 79be f1b0 e4bd 8043 3fbe d924 1bbd
000001d0: 55df 84be 2b29 0e3e ce1f c93d e7d4 253d
000001e0: 95f8 3b3e 891a 9e3d 39f5 c03e 85ea 273e
000001f0: 4f4c fa3d 2f3a d63d d3be d2be 246a 07bf
00000200: 66d3 52be ebf8 3e3e cf9c d13d 9624 99be
00000210: 2c0a febe d8bc 9ebe d69b b4bd aa3e a4bc
00000220: faad a3be 6b77 71be 94d9 48bd 55c7 00bd
00000230: 33f6 3ebd fd64 99be a1e2 3f3e ea1d 7c3e
00000240: 20e8 ecbd b525 b33c 48a6 adbc b22c 9e3e
00000250: abc8 063e a09f d0bc fee3 9b3d 4585 a7bd
00000260: 941e 30bd 2c67 78bd 389b d4be da3b 4f3e
00000270: 4b7f 8f3c 485d a13c 3dd5 cc3d 04cf 71be
00000280: e8a3 3ebd 3bf1 97bd d9e3 bebc 86ec 723e
00000290: f05c ed3c 4a8c 1ebe 800c b4be 0922 3dbe
000002a0: b953 a23e 1762 cabc 0589 f7bc ee87 bbbe
000002b0: 1f4c 123e 26c3 c83e 683b 123e 0107 a7bc
000002c0: 811f 0fbd 771d 57be b0e7 c8bd 7e4d cd3c
000002d0: f55d af3d 652c 9b3e 2dc2 943c 38cf 2dbd
000002e0: 365e e93d ddb7 283d 989a 403d 4291 98bc
000002f0: adc7 e5bd 4917 6dbd ef38 113d ba96 94bd
00000300: 2e95 373e cbe0 22bd bf6f 6dbe 328b 93be
00000310: 71ca 52be 487d f13d 2592 2f3e 28f6 043e
00000320: 95ea e8bc 3e23 c8bd 3e45 cfbe 999f b2be
00000330: 9e2a 8abd 8239 fa3c 9259 cf3d fc7f 54be
00000340: 3845 4dbe 10dc 2dbe 26d1 66bd 8f19 6c3e
00000350: 7ef2 77be 51d6 ccbd 81b0 713e a409 b53a
00000360: 3b85 02bd 79d9 a1bd 0147 653d be8a 2fbc
00000370: 1580 f93d 6e6b f5bd 821f cb3c ef0a 423e
00000380: c15b 173e d13a b0bd 0c1b 49be 1172 d73e
00000390: 6ae9 3dbe fed7 53bd f8a5 863d 3581 883d
000003a0: e8bb bb3e 61bf 6abd eef4 73bc 1013 8a3d
000003b0: d2f7 d5bd 2b65 733e d8aa 32bd 12e4 1dbe
000003c0: 993d 0b3a 9a3c 15bd 2cbf 01be acc5 8c3d
000003d0: b1a4 d73d f4b2 4a3d 1149 91bc 4409 4f3e
000003e0: 8640 c23e 7828 a13d 15b0 e73b 7896 90bd
000003f0: c720 bf3d 08b6 60bd 5b20 f53c 815a 393e

conv_block2_kernel_5.bn1.weight f4 [32]
0.90850234 1.0173186 0.8760839 0.8193537 1.0834022 1.2312853 0.98038185 1.0353618
1.107354 1.0077926 1.0434642 0.8921736 1.0191588 1.002345 0.90632826 0.7890361
0.8490919 0.90597045 1.019146 1.150031 1.0707756 0.76484543 0.68949145 0.8174497
0.9260035 1.0290704 1.0512941 1.0255151 0.9084999 0.81053185 0.6136681 0.86515564
00000000: 9c93 683f 7f37 823f 0947 603f 2ac1 513f
00000010: ecac 8a3f c29a 9d3f 4efa 7a3f bc86 843f
00000020: c7bd 8d3f 59ff 803f 3c90 853f 7d65 643f
00000030: cc73 823f d74c 803f 2105 683f 45fe 493f
00000040: 165e 593f aeed 673f 6073 823f 3734 933f
00000050: 2d0f 893f e9cc 433f 8382 303f 6244 513f
00000060: 910e 6d3f 94b8 833f ce90 863f 1444 833f
00000070: 7393 683f 047f 4f3f 5a19 1d3f d77a 5d3f

conv_block2_kernel_5.bn1.bias f4 [32]
-0.5383578 -0.45332018 -0.34981245 -0.5692328 -0.4764135 -0.6078507 -0.49730828 -0.5259659
-0.48246405 -0.3825416 -0.44631204 -0.41595644 -0.3843381 -0.57041544 -0.39392343 -0.4822094
-0.53056693 -0.34453383 -0.45008323 -0.5603 -0.4764334 -0.4789267 -0.47176516 -0.61477095
-0.37088072 -0.60318404 -0.6552615 -0.46113408 -0.67483187 -0.4414938 -0.5092351 -0.5092069
00000000: d1d1 09bf 9519 e8be 9e1a b3be 3eb9 11bf
00000010: 78ec f3be 1a9c 1bbf 319f febe b4a5 06bf
00000020: 8705 f7be 7edc c3be 0383 e4be 3ef8 d4be
00000030: f7c7 c4be bf06 12bf 55b0 c9be 27e4 f6be
00000040: 3cd3 07bf bd66 b0be 4f71 e6be d26f 0fbf
00000050: 14ef f3be e135 f5be 348b f1be a161 1dbf
00000060: 14e4 bdbe 456a 1abf 38bf 27bf c419 ecbe
00000070: c8c1 2cbf 7a0b e2be 3b5d 02bf 625b 02bf

conv_block2_kernel_5.bn1.running_mean f4 [32]
-1.413482 -2.6473181 -3.8772063 -2.3060713 -4.7177086 -3.1094184 -2.6003206 -2.0108068
-2.8372657 -2.2594976 -2.0736945 -2.4532745 -1.0128108 -2.1711698 -2.3579314 -1.8929343
-2.5352812 -1.3778728 -3.423979 -2.301262 -4.2002487 -1.716857 -1.9681087 -0.2703608
-2.0710561 -2.611746 -2.0202103 -2.0236254 -1.3217181 -1.311734 2.3581672 -3.0287094
00000000: faec b4bf a96d 29c0 2624 78c0 ac96 13c0
00000010: 78f7 96c0 b600 47c0 a76b 26c0 0fb1 00c0
00000020: c395 35c0 9c9b 10c0 69b7 04c0 7302 1dc0
00000030: c9a3 81bf 72f4 0ac0 59e8 16c0 ac4b f2bf
00000040: 0c42 22c0 235e b0bf 7922 5bc0 e047 13c0
00000050: 7068 86c0 f8c1 dbbf fcea fbbf bb6c 8abe
00000060: 2f8c 04c0 d926 27c0 204b 01c0 1483 01c0
00000070: 0f2e a9bf e6e6 a7bf 36ec 1640 60d6 41c0

conv_block2_kernel_5.bn1.running_var f4 [32]
7.500468 11.325374 16.16749 8.029762 16.659935 10.09683 11.218315 6.478451
11.173902 8.14525 8.840061 9.381897 4.6559744 12.1942005 7.8983455 11.98841
12.772871 4.0778375 10.856561 8.760045 11.863703 5.5874515 10.530331 4.944464
6.97572 6.7112703 10.096005 9.543838 4.366433 6.145864 14.32652 11.45769
00000000: d503 f040 bb34 3541 0557 8141 e879 0041
00000010: 8c47 8541 9e8c 2141 387e 3341 784f cf40
00000020: 4dc8 3241 f252 0241 e470 0d41 401c 1641
00000030: befd 9440 721b 4341 3fbf fc40 87d0 3f41
00000040: ae5d 4c41 a57d 8240 79b4 2d41 2529 0c41
00000050: bad1 3d41 67cc b240 3c7c 2841 0d39 9e40
00000060: 1939 df40 bac2 d640 3d89 2141 8fb3 1841
00000070: d2b9 8b40 ebaa c440 6d39 6541 b352 3741
