MED/application/MTRCNN_0_lr0.0005_e100_b64/model/final_model.pth (torch, 983318 bytes, 55 tensors)

bn0.weight f4 [64]
00000000: 58c9 973f 887e 853f 3e2a 813f f3ae 8a3f
00000010: 7e56 8b3f 7784 913f 746a 8a3f 3c02 7a3f
00000020: afba 853f 09b7 8f3f de0d 5b3f 586e 6f3f
00000030: 16a3 793f e5d9 973f b271 803f fe56 893f
00000040: f8d3 883f 5246 883f 5f58 833f ea7f 803f
00000050: bf06 7e3f ea14 883f 5edf 843f 3df9 813f
00000060: bc8f 7a3f 2ceb 8d3f 88f2 8f3f 8f7e 873f
00000070: e5dc 923f b4ee 843f bda9 953f c4aa 893f
00000080: 2cb3 863f 5b80 8c3f b0c3 a03f 59d4 573f
00000090: 18e3 643f ab12 273f 8b3d 503f 4cbb 403f
000000a0: e867 473f 1d22 463f eea6 333f 4f91 363f
000000b0: a353 213f 7637 203f d64d 123f b925 293f
000000c0: 449b 2e3f 7a72 063f fdba 563f b94f 363f
000000d0: a5a7 4a3f 31be 713f fba5 233f dc51 3f3f
000000e0: 88bd 1d3f 9b4f 0f3f c71b 2e3f 0a1e 523f
000000f0: 7000 4a3f 15cf 543f 0a51 2a3f 543f 8a3f
1.185832 1.0429239 1.0091016 1.083464 1.088577 1.136855 1.0813737 0.9765966
1.0447596 1.1227733 0.85568035 0.93527746 0.97514474 1.1863371 1.0034697 1.0729673
1.0689688 1.064646 1.0261344 1.0039036 0.99229044 1.0631382 1.0380666 1.0154186
0.9787557 1.1087394 1.124589 1.0585498 1.1473662 1.0385346 1.1692425 1.0755239
1.0523429 1.0976671 1.2559719 0.8430839 0.8940902 0.6526286 0.8134391 0.7528579
0.77892923 0.773958 0.7017659 0.71315473 0.63018245 0.62584627 0.5715002 0.66073185
0.68205667 0.5251843 0.8387907 0.712154 0.79162055 0.94430834 0.6392514 0.7473428
0.61617327 0.55980843 0.68011135 0.82077086 0.7890692 0.8312848 0.66529906 1.0800576

bn0.bias f4 [64]
00000000: 8153 393d e733 66be 2d13 c23d 0ddd cbbd
00000010: 8c33 a23c 10a9 e6bd 726c 0cbc aa40 783d
00000020: afb7 e6bd 75f9 fabc e106 50bd a0ed 14bd
00000030: 3e48 aa3b a8b9 67bc 3214 5dbd 607a 553d
00000040: 1e83 b03d ca57 d3bd 2aaa 773d 6b14 ad3d
00000050: d579 7fbc 8f5d 20bd f4b2 213d 5080 143e
00000060: bd4e 403d a365 013d 5bd3 ebbd a229 19bd
00000070: 024e 6cbd c614 98bd ca8a f0bd efce b6bd
00000080: a63b eb3c 6892 67bd 84c2 dcbd 7f3e d03d
00000090: aca7 203e 89f3 5e3e 2072 9f3e 5012 c83e
000000a0: d742 c53d d5eb 823e 32c8 5dbd e643 7ebd
000000b0: 58aa be3d 6b41 8d3b 48f9 853e db75 d53e
000000c0: 6935 163e 53d4 443e dd8a 1a3e 2305 ae3d
000000d0: 47fb a93d 6a16 3b3e 9730 59bc ea40 fabd
000000e0: 2a31 413d fd81 2a3e bded 97bd efdc 333e
000000f0: bd1a 5a3e 10a2 a73d d4b5 b53c 7c36 39bd
0.04524565 -0.22480737 0.09476314 -0.099542715 0.01979997 -0.11262715 -0.008570777 0.060608543
-0.112655036 -0.030636529 -0.05078781 -0.03635943 0.0051966 -0.014143385 -0.053974338 0.05211866
0.086187586 -0.10319479 0.060465015 0.0845116 -0.015593012 -0.039151724 0.039477304 0.14502072
0.04695009 0.03159107 -0.11514922 -0.03739322 -0.05769158 -0.07425837 -0.11745222 -0.08926188
0.028714966 -0.05653611 -0.107792884 0.1016817 0.15688962 0.21772589 0.31141758 0.3907647
0.09631889 0.2557055 -0.054146 -0.06207647 0.09309834 0.004310777 0.2616675 0.4169148
0.14668812 0.1922162 0.15092035 0.084970735 0.082998805 0.18270269 -0.013256214 -0.122194126
0.047166027 0.16651149 -0.07418392 0.17564748 0.21299262 0.08185208 0.022181429 -0.045217976

bn0.running_mean f4 [64]
00000000: 7543 3abd b3cc 38bd 9993 04bd bfa9 c0bc
00000010: 2cd9 a7bc fde2 a8bc a123 b6bc 8316 bebc
00000020: 9d54 e0bc dc03 0abd 6662 07bd 53ef d9bc
00000030: c646 e1bc 0dcf b2bc 8813 e6bc d8e2 10bd
00000040: 0006 1cbd 9e5d 27bd eed9 1cbd 5d02 08bd
00000050: 456b 01bd d626 fbbc b4e1 ccbc 9ae0 afbc
00000060: 3a12 98bc 2965 5cbc db13 96bc c872 c3bc
00000070: d33c e0bc 4d53 e5bc 5b05 f3bc dc42 12bd
00000080: 464d 28bd 83eb 2abd bef2 16bd 2a19 edbc
00000090: fc79 dbbc 953a e5bc ca41 fabc f467 07bd
000000a0: ba1b 15bd 1b41 14bd f945 0bbd ef85 16bd
000000b0: 2cc5 e0bc d264 b9bc ea13 febc 4a6e 0fbd
000000c0: 211f 0dbd 6323 00bd ccf9 f0bc 8753 debc
000000d0: ede2 c4bc 380a cabc edfb dbbc 8349 debc
000000e0: 24cb ffbc 0993 16bd bb3d 11bd 595e 05bd
000000f0: 9295 d3bc 4bf7 dfbc 0d23 0abd 9caa c5bc
-0.04547449 -0.04511709 -0.032367323 -0.023518441 -0.020489298 -0.020616049 -0.022233786 -0.023204094
-0.027384097 -0.033695087 -0.033052824 -0.026603376 -0.027499568 -0.021827245 -0.028085485 -0.035372585
-0.03809166 -0.040860765 -0.03829377 -0.03320538 -0.03159644 -0.030658167 -0.025009967 -0.021469403
-0.018563379 -0.013451853 -0.018320015 -0.023858443 -0.027372753 -0.027993822 -0.02966564 -0.035708293
-0.04108932 -0.041728508 -0.03685259 -0.028942663 -0.026791565 -0.027982036 -0.030548949 -0.03305812
-0.036403395 -0.036194902 -0.034002278 -0.036748823 -0.027437769 -0.022631083 -0.031015355 -0.03501729
-0.034453515 -0.031283747 -0.029415987 -0.027139438 -0.024033988 -0.024663076 -0.026853526 -0.027134662
-0.031224795 -0.036761317 -0.03545926 -0.03256068 -0.025828157 -0.027339598 -0.033724833 -0.024129204

bn0.running_var f4 [64]
00000000: 8b5d 7e3f 2e9e 823f 4341 843f a67b 843f
00000010: a39c 833f 6efc 833f 8d21 833f 925a 823f
00000020: 65af 803f 999b 803f a89d 803f 4377 803f
00000030: 3483 813f 6158 833f ca6c 833f 8c85 813f
00000040: 5b18 7f3f 41bd 7d3f 1345 7e3f d314 7d3f
00000050: 9145 7e3f 63c0 7f3f e29e 803f b88d 813f
00000060: 839b 803f 58f4 7e3f bc75 803f 722a 823f
00000070: 8dfd 823f a039 833f 621b 833f 2cc9 813f
00000080: ee82 7e3f dc43 7c3f 5296 7d3f b5c8 803f
00000090: 4b6a 813f 5ce0 7f3f a5e4 7e3f f30e 803f
000000a0: 486b 803f f73f 813f 2dd3 823f 5bc8 813f
000000b0: 1154 803f 03b9 803f b5c3 813f 6498 813f
000000c0: fd3d 823f f7b7 823f d92a 833f 803b 823f
000000d0: 44f1 813f de85 813f 3f3d 823f 6b79 823f
000000e0: 805c 823f 9b46 813f 1bff 803f 97ad 803f
000000f0: 2eb3 803f 03d6 813f 13ae 813f ad46 813f
0.99361485 1.0204523 1.0332416 1.0350235 1.0282177 1.031141 1.0244614 1.018389
1.0053526 1.0047485 1.0048113 1.0036396 1.0118165 1.0261346 1.0267575 1.011888
0.9964654 0.99116904 0.9932415 0.988599 0.993249 0.99902934 1.0048487 1.0121374
1.0047458 0.9959159 1.003593 1.0169203 1.0233628 1.0251961 1.0242732 1.0139518
0.9941853 0.98541045 0.99057496 1.0061251 1.0110563 0.9995172 0.99567634 1.0004562
1.003274 1.0097646 1.0220696 1.0139269 1.0025655 1.0056461 1.013785 1.0124631
1.0175167 1.0212392 1.0247451 1.0174408 1.0151753 1.0118978 1.0174941 1.0193304
1.0184479 1.0099672 1.0077852 1.0052975 1.0054681 1.0143436 1.0131248 1.0099694

conv_block1.conv1.weight f4 [16, 1, 3, 3]
00000000: 87a0 06bf d373 713f 85f8 3ebf caea 06bf
00000010: 2620 883c 562b 02bf e2af 5c3e 2172 543f
00000020: 4473 b6be 8876 0f3f 06ad de3e 66f9 54bf
00000030: cb06 0dbf 9bca 1b3f fd1c f4bd bbed 4c3f
00000040: 1514 8abe 2fa0 3abf 7d50 b9be dcb8 3d3f
00000050: c454 603f b4ec 443d 56df 94be a0f3 223f
00000060: 6f03 373e 9999 4d3f c7c0 593f c643 873f
00000070: 432d 053f eedd 133f 767b 28be fbeb 12bf
00000080: b650 07be dd8a 1a3f 565f 2cbf b24e a13e
00000090: fae6 443d f83b db3d 7c91 e8be 6349 56be
000000a0: 8d10 87be 88b8 22bf d89c 973e fd59 fb3e
000000b0: 4b75 e83e fd28 f23e 7286 0cbf 3d65 12bf
000000c0: cd39 343f 0376 cf3e 324c 8d3e d84a 903e
000000d0: 3df0 07bf 7c79 bd3e 058e 0bbf 75eb 2c3f
000000e0: 40fd 53bf 9c18 05bf 46b3 523f ca51 063f
000000f0: bddb 673e 47a1 283e 3d5d 1cbf 4372 9ebe
00000100: aeb9 13bf a298 43be c02d 063f 6ee3 cdbe
00000110: 97ac 423e c6da 743f 1689 1e3f 6169 9dbe
00000120: f5d5 f23e 7999 68bf 3b57 e5be afd3 0fbf
00000130: 4ca9 13bf bd9f 5dbf 40e1 1e3e 5d60 08be
00000140: d0b4 45bf 4fdc 653e b2e7 88be 932f 273f
00000150: 2eba 2cbe 4bd3 8bbe 7a33 56be f8c3 62bf
00000160: 6656 36bd a779 443f 9361 523f 7e6e 15bf
00000170: 30ef ac3e 0827 563f b816 76bf 6441 00bd
00000180: 2b6c 283f 532a 883e 4ae3 a1be 84bf 7cbe
00000190: e0b6 d63e e91a 13bf 060d a2be 4dcf 463f
000001a0: 0e58 fcbe 780d 17bf 8ef2 103c 0ff2 abbe
000001b0: 4c85 093e 89a2 8b3d 1f70 52bf 4eec 573e
000001c0: ab9d 523e cb83 9b3e 45cb 2f3f 421b acbd
000001d0: 7ce9 e13e 0abe 5d3f a631 183f 2bc8 2d3f
000001e0: 46e5 9e3e a08e 34bf 0c38 943e 15a2 3d3e
000001f0: ed7b 2ebf 14a5 1dbe 288d 4c3f d5ab 683e
00000200: 064b b63e 131a 393f 8015 363e d0fa 26bf
00000210: 8252 08be 3ce4 0abf d308 853e b5d7 43bf
00000220: 963d b93e 7ea1 5abf ff9b a0bc 1cf3 023f
00000230: 3a41 0cbe 007f 16bc a952 683e 2c6c 183f
-0.52588695 0.9431736 -0.7459796 -0.5270201 0.016616892 -0.50847375 0.21551469 0.82986647
-0.35634816 0.5604024 0.4349138 -0.8319305 -0.5508849 0.60856026 -0.119195916 0.8005025
-0.26968446 -0.7290067 -0.3619422 0.741102 0.8762934 0.0480773 -0.29076642 0.6365299
0.17872404 0.80312496 0.8505978 1.0567558 0.5202219 0.5776051 -0.16453347 -0.5739133
-0.13214383 0.6036814 -0.6733297 0.31505352 0.04807184 0.107047975 -0.45423496 -0.20926432
-0.26379815 -0.6356282 0.2961185 0.49092093 0.45401987 0.47296897 -0.5489265 -0.5718573
0.70400697 0.40519723 0.27597195 0.281821 -0.5310095 0.37006748 -0.5451358 0.6754678
-0.82808304 -0.51990676 0.823048 0.5246855 0.22642417 0.16467772 -0.6107977 -0.3094655
-0.577052 -0.19101194 0.5241356 -0.40212578 0.1901115 0.9564632 0.61927927 -0.3074446
0.4742886 -0.9085918 -0.44793114 -0.5618238 -0.576802 -0.86571866 0.15515614 -0.1331801
-0.7722902 0.22447322 -0.2673927 0.6530697 -0.16867897 -0.2730964 -0.20918074 -0.88580275
-0.04451599 0.76748127 0.82180136 -0.5837172 0.33776236 0.83653307 -0.96128416 -0.03131236
0.6579005 0.2659479 -0.3161872 -0.24682432 0.41936398 -0.57462937 -0.3165056 0.77660066
-0.4928593 -0.59004927 0.008846892 -0.33583114 0.13429755 0.068181105 -0.82202333 0.21086237
0.20567958 0.30373988 0.6866954 -0.084036365 0.44123447 0.866181 0.5945076 0.6788356
0.31034297 -0.7053013 0.2894901 0.1851886 -0.68157846 -0.15395004 0.7990289 0.22721799
0.35604113 0.7230541 0.17781639 -0.6522646 -0.13312724 -0.5425451 0.25983295 -0.7650102
0.361798 -0.8540267 -0.019605635 0.51152205 -0.13696757 -0.009185553 0.22687782 0.5954006

conv_block1.bn1.weight f4 [16]
00000000: 4941 6e3f 09ec bd3f 0ae7 0f3f a8a3 3c3f
00000010: 3cf6 903f ba76 1d3f d8a4 ac3f 4685 283f
00000020: b32e 8b3f 331d ba3f ae34 643f 9c0e 6f3f
00000030: 888a 2b3f 1309 213f 8deb 403f f43e 923f
0.9306837 1.4837657 0.5621191 0.7368722 1.1325145 0.6150929 1.3487806 0.6582836
1.0873626 1.4540161 0.8914288 0.9338167 0.67008257 0.6290447 0.7535942 1.1425462

conv_block1.bn1.bias f4 [16]
00000000: c192 24bf b41d eebd 9ce3 8cbe 0949 b6bd
00000010: fc43 c0be 4660 9abd 6dc2 03bf b447 64bd
00000020: 49ae 95be 5a4b 0abe a8e0 83be b309 aabe
00000030: 0ff5 003d bb3e 1cbd 1ca9 eebd 257b 19bf
-0.6428643 -0.11626759 -0.27517402 -0.08900649 -0.37551868 -0.07537894 -0.51468545 -0.055732444
-0.29234532 -0.13505307 -0.25757337 -0.33210525 0.031483706 -0.038145762 -0.11653349 -0.5995353

conv_block1.bn1.running_mean f4 [16]
00000000: b813 e2bc f094 1cbb b18f 143e d132 843d
00000010: 6548 e6bb 42ec 1a3d adc4 5fbb bbd3 bb3c
00000020: 3e3c 1cbe 2236 2bbc 4dc0 383d 8bf0 68bd
00000030: e3ba 493d 4e58 6f3d d650 553d 2b42 6bbb
-0.027597293 -0.0023892485 0.14507939 0.06455005 -0.007027673 0.03782297 -0.0034144328 0.02292811
-0.15257356 -0.010449918 0.045105267 -0.056870025 0.049250495 0.058433823 0.052079044 -0.0035897593

conv_block1.bn1.running_var f4 [16]
00000000: ebba 2f3f b121 173f 6f12 1841 3ead fa3f
00000010: bb3e 5f3e 09d6 593f 9d0a a93e 5c07 203f
00000020: dee7 2641 e8aa ec3e 46ba ae3f 9501 bb3f
00000030: 6567 963f c500 de3f 7e70 b33f ebd2 8c3e
0.6864459 0.59035784 9.5045 1.9584119 0.21801274 0.85092217 0.3301591 0.6251123
10.431608 0.4622414 1.3650596 1.4609858 1.1750304 1.7343985 1.4018705 0.27504668

conv_block2.conv1.weight f4 [32, 16, 3, 3]
00000000: 25fb 3dbe ec55 723d 1cd9 7dbe 16d1 bdbd
00000010: 327b 1cbe 2187 e0bd c60e 81be e8a9 213e
00000020: 4ffb a5bd 6d44 123e cd2c dc3d c78b e53d
00000030: cbfa 053e e6dc 503e c1ae 65bd 4e1d e2bd
00000040: f6fd 67bd dd1e 663d d77c bb3e 7bf3 b13e
00000050: 8a36 1d3f fa71 6d3e 2df5 323f 162b 783e
00000060: 6c01 0c3e 5661 223f 8d8b c83e 2c8e e53c
00000070: ba96 60be a035 cfbc 3dd8 d7be 2190 07bf
00000080: e981 69bd 2cb5 a5be 9045 01bf bd51 67be
00000090: c9bf cdbb 2722 59bd 6784 26be 8f14 15be
000000a0: 6621 113e fb94 8abe f3ea 613e f89c 9cbd
000000b0: 31a7 f0bd 7404 26bd 16d1 bbbe 94d4 a2bd
000000c0: 3206 02be d3f7 0abd 7fb0 3fbe 3e80 3e3c
000000d0: ff25 a8be 3b98 d8bd ca0f 00bf 3eed 9c3e
000000e0: ef56 f3be 8936 cabe c55c 243f 6cad c2be
000000f0: 3d64 c5be 6394 d23e e504 02bf aeab 63bd
00000100: 0abd 05be 9761 f5bd 7110 22be 6366 9cbe
00000110: fe57 9bbd 3e63 8e3c a442 06bf 63b9 cbbe
00000120: d5c4 e9bd 49e2 9f3c 6207 c6bc 83d5 cf3c
00000130: 0449 30bd 6fe0 38be c2b3 3abe d5d3 ac3d
00000140: 39a5 3dbd 33e7 743e f257 f3bd 1d67 bb3d
00000150: f466 25be d26d 36bd 79f5 5a3d 77a8 cfbd
00000160: 6e9f 03be 07fb 0bbe ba47 203e 790e 67bd
00000170: b8f5 4f3e a509 cb3d 84b3 28bd 7b73 c73e
00000180: ff49 543e 1034 c63d 025f 373e 39fd 8bbe
00000190: 4a34 a83d b7de 86bc 7e95 4e3c 2171 243e
000001a0: 2db4 92bd 5ac1 abbe dace 873d 7308 4fbe
000001b0: a1d2 38be 9f3e 32bd f341 19bc ef33 febe
000001c0: 5464 c9be 79bd a8bd b0d2 00bf 16a9 afbe
000001d0: 6979 02bf 1291 663d 2b84 c1be f83d eabd
000001e0: 94ab dcbe 6d09 c6be 4490 42be 6903 10be
000001f0: 6c5f 11bf 3a36 b9be 84aa 9bbe 4253 43be
00000200: 57a6 e43d b928 9fbe 3a94 85be 8b26 8cbe
00000210: 5844 8abe 431a 3dbd e437 b5bd ca6c e4be
00000220: 7dc6 873d 05cf 34bf c111 eabe 699d 8b3e
00000230: 079d 3cbf fe9f 58be dc89 453e bc3a 2abf
00000240: 1f24 e73d 124e 13be a2dd 2b3e 808a 14be
00000250: 4f50 bcbd bd30 793e c388 81be 80b1 e6bd
00000260: 3cc7 f3bd 0d47 bebe dbe9 3f3d e3f5 873d
00000270: 6e18 09bf 0596 193e 8575 33bd 95d9 d2be
00000280: 38eb 3e3e 99ac 5c3d c230 52bd 0a06 903e
00000290: 7b42 073e f47f c4bc c7e2 70bd af9c f33d
000002a0: 4f8f 8d3d a066 b1bb cdfc c83e 07bd f3bc
000002b0: 8084 4cbe b4e4 603e eb40 36be 8cd5 093e
000002c0: bf10 283e 4788 77be ce67 243e e788 0c3c
000002d0: 597a 5dba e537 10be f3c9 043c 381b b3bd
000002e0: 42ca b73e 85e0 d13d a3d6 6abe 64fe 613e
000002f0: 5115 77be c8a9 c2be 5ad1 363e 34d5 8d3e
00000300: f8d0 06bf f1e7 113d 5513 863d ff83 a0be
00000310: 1526 253d bc4b 793d f0fe 66bd 919a 4b3e
00000320: 344d 89bc e144 9abd 5750 d13d 317f d8be
00000330: 284e 63be 18bf 77bd 8476 00bf 4d14 c2be
00000340: b92b f03d 28e1 523e b5b9 05bf 6f5a 883e
00000350: 955b 833e 0c4a a5be ff4e 6fbb 7e06 61bd
00000360: 20cd 80be 86c3 a3bd 899f 8bbe a609 95be
00000370: dae6 6dbe 37a7 33be fa6b e83b 6dfd 25bb
00000380: bdbd e9bd 2f94 933e 6769 61be 4a43 13be
00000390: 7af1 1e3f fb17 edbc 63c5 44be ce85 183f
000003a0: 46db 55be 4a7e 73bd 6809 9bbe 9897 d3bd
000003b0: 6a4e c43d 9d67 0abf d35e 45bc 1c6c 27bd
000003c0: 91fa babe 60a6 96bd 66d8 633e 7a41 fe3d
000003d0: ff35 0ebe b4c1 68ba b103 09be fa16 49be
000003e0: f867 023d 02db 13bd 037f 95be a236 843d
000003f0: 4066 91be cce9 45bd bf26 8dbc a7a8 ddbe
-0.18552835 0.059163973 -0.24789852 -0.092683956 -0.1528137 -0.10963274 -0.25206584 0.1578747
-0.08104574 0.14283915 0.107507326 0.11208301 0.13083951 0.20396766 -0.05607486 -0.11040746
-0.05663868 0.056181777 0.36618683 0.34756073 0.61411345 0.2318801 0.6990536 0.24235186
0.13672417 0.6342977 0.3916897 0.028021894 -0.21932498 -0.025294125 -0.42157164 -0.529543
-0.057008658 -0.32364786 -0.5049677 -0.22589774 -0.006278966 -0.053011086 -0.16261445 -0.14558624
0.14172897 -0.27066788 0.22062282 -0.07647127 -0.11750639 -0.04053159 -0.36682957 -0.07950702
-0.12697676 -0.03392775 -0.18719672 0.011627255 -0.3284149 -0.10575911 -0.5002409 0.3064975
-0.47527263 -0.39494732 0.64204055 -0.38022935 -0.38553038 0.41128835 -0.5078872 -0.05558365
-0.13060394 -0.119815044 -0.15826584 -0.30546865 -0.075851426 0.017381307 -0.52445436 -0.39789876
-0.11414496 0.01951708 -0.024173442 0.025370365 -0.043038383 -0.18054365 -0.18232635 0.08438841
-0.046300147 0.2391632 -0.118820086 0.09150527 -0.16152555 -0.044538327 0.053456757 -0.10139554
-0.12853786 -0.13669978 0.15652362 -0.056410287 0.20308578 0.09913949 -0.041186824 0.38955292
0.20731352 0.09677899 0.17907336 -0.2734163 0.08213098 -0.01646362 0.012608884 0.1605878
-0.07163272 -0.33545953 0.06631251 -0.20218067 -0.18049099 -0.04351675 -0.009354102 -0.49648997
-0.39334357 -0.08239264 -0.50321484 -0.3430869 -0.5096651 0.056290694 -0.3779615 -0.11437601
-0.43099654 -0.38679066 -0.19000345 -0.14063801 -0.5678623 -0.36174184 -0.3040353 -0.19074729
0.11164539 -0.31085756 -0.2608965 -0.27373156 -0.27005267 -0.046167623 -0.08848551 -0.4461425
0.066296555 -0.70628387 -0.4571667 0.27268532 -0.73677105 -0.21154782 0.1929087 -0.6649587
0.112861864 -0.1438525 0.16783765 -0.14505959 -0.09195005 0.24334998 -0.25299653 -0.11264324
-0.11903235 -0.37163582 0.04685388 0.06638696 -0.535529 0.14998634 -0.043813247 -0.41181627
0.18644416 0.05387554 -0.05131603 0.28129607 0.13208954 -0.023986794 -0.05881002 0.118951194
0.069120996 -0.005413845 0.39255372 -0.029753221 -0.1997242 0.21962243 -0.17798202 0.13460368
0.16412638 -0.2417308 0.16055223 0.008577562 -0.0008448712 -0.14083822 0.008104789 -0.08745426
0.35896498 0.10247902 -0.2293344 0.22069699 -0.24129225 -0.38020158 0.17853299 0.27701724
-0.5266261 0.035621587 0.06546656 -0.31350705 0.04031952 0.06086324 -0.05639547 0.19883181
-0.016760446 -0.07532669 0.10220402 -0.4228454 -0.22197783 -0.060484976 -0.5018084 -0.37906113
0.117270894 0.20593703 -0.5223649 0.26631495 0.2565581 -0.32283056 -0.0036515591 -0.054937832
-0.25156498 -0.079962775 -0.27270153 -0.29108924 -0.23232594 -0.17544256 0.00709295 -0.0025328055
-0.11413143 0.28823993 -0.22012864 -0.14381137 0.62087214 -0.028942099 -0.19215922 0.5957917
-0.20884427 -0.05944661 -0.30280614 -0.103316486 0.09585269 -0.5406435 -0.012046534 -0.040874586
-0.36519292 -0.07355952 0.22250518 0.124148324 -0.13887785 -0.00088789617 -0.13380314 -0.19637671
0.031837434 -0.036097534 -0.29198465 0.06455733 -0.28398323 -0.04831867 -0.01723039 -0.43292734

conv_block2.bn1.weight f4 [32]
00000000: 440f 663f 2656 973f ecaa 763f 7206 8c3f
00000010: f8e1 4a3f 6116 8e3f 2c5c 793f be23 373f
00000020: ed7f 8e3f a939 6c3f fc8a 953f d248 8c3f
00000030: 9b54 763f 7598 203f a65d 953f 0a07 863f
00000040: 516c 883f a8f7 853f 6b95 923f 61c3 383f
00000050: 0ad9 7c3f 69f8 743f 4bc1 3b3f 3180 943f
00000060: 839e 953f d33a 8d3f 9c03 9c3f 0de0 673f
00000070: f598 483f cd78 9b3f 2d2d 773f fb37 783f
0.89867043 1.1823165 0.96354556 1.0939467 0.7925105 1.110058 0.9740627 0.71538913
1.113279 0.9227548 1.168304 1.0959723 0.9622285 0.6273263 1.1669204 1.0470898
1.0658056 1.0466204 1.1451849 0.72173125 0.98768675 0.95691544 0.73341817 1.1601621
1.1688999 1.1033577 1.2188601 0.9057625 0.78358394 1.214624 0.9655331 0.9696042

conv_block2.bn1.bias f4 [32]
00000000: 29c2 c0be 8844 afbe 1059 cdbe 37be 23bf
00000010: 3f40 b2be c051 c2be 3c3c 46be 9c67 c5be
00000020: 588e ddbe 5041 2cbe 02e6 64be 49a2 92be
00000030: 1fc0 6fbe 6f5b e9be 45cc d7be cb84 c7be
00000040: 9b02 c9be 0ded b0be 15c5 c1be 44ce a1be
00000050: fdfe bdbe 6212 acbe b2e2 c3be 2a88 1abf
00000060: 9631 c9be 3dba c6be f036 4bbe 7ff9 87be
00000070: 73f2 10bf c547 18be 18f6 b0be 6161 89be
-0.37648132 -0.34231973 -0.40107012 -0.6396212 -0.3481464 -0.37952995 -0.19358915 -0.3855561
-0.43272662 -0.1682179 -0.22353366 -0.2863944 -0.23413132 -0.4557757 -0.42148033 -0.389685
-0.392598 -0.34555855 -0.37845674 -0.3160268 -0.37108603 -0.33607775 -0.38258892 -0.6036402
-0.39295644 -0.38813964 -0.19845176 -0.26557538 -0.5661995 -0.14871128 -0.34562755 -0.26832107

conv_block2.bn1.running_mean f4 [32]
00000000: 7e9b 64c0 556f ccbf 572a 923f 9fe5 2e3f
00000010: 0489 9abf 950a c5c0 bc32 ccbf b7a7 4840
00000020: 930a a8bf 68d3 d13f e6fe 5abf 6019 17c0
00000030: 1126 3e40 5ace 4e40 a0c0 8bbf 0b23 abbd
00000040: 8db3 4ac0 6e63 a9bf 7159 b1bf 923a 44bf
00000050: 9d4e 68be eaa5 b4c0 5ae6 7f40 89e5 dbbd
00000060: ca00 71c0 37e7 8bbe 00fc 1fc0 c688 88be
00000070: c2ed c23e a2c0 9cbf aad7 15bf e82d afc0
-3.5719905 -1.5971476 1.1419171 0.68319124 -1.2073064 -6.1575418 -1.5952983 3.1352365
-1.3128227 1.6392641 -0.85545194 -2.3609238 2.9710734 3.2313447 -1.091816 -0.08356293
-3.167209 -1.3233469 -1.385542 -0.7665187 -0.22686239 -5.645253 3.9984345 -0.1073714
-3.7656732 -0.2732484 -2.4997559 -0.2666685 0.3807202 -1.2246287 -0.585322 -5.474354

conv_block2.bn1.running_var f4 [32]
00000000: 4802 e540 9f3d f440 cf01 d940 ffc9 6440
00000010: 5cfb 3c41 9a80 8641 8bfc 8040 85e6 fa40
00000020: 63aa 2541 9254 e040 850e 9740 3bee 9b40
00000030: 3ab0 2141 d06c 9540 99e5 7340 1032 7a40
00000040: a977 1941 641e 8d40 e953 c940 bee0 0c41
00000050: 77cf b540 2bf0 ec41 74de 7141 d9b7 9b40
00000060: dfa4 0441 5d19 8140 56f9 fa40 af37 6240
00000070: db00 8240 a6b8 b340 da21 5c40 7d31 ea41
7.1565285 7.632522 6.781471 3.5748289 11.811367 16.812794 4.030828 7.8406396
10.354098 7.0103235 4.7205224 4.872831 10.105524 4.669533 3.8108885 3.9093056
9.591714 4.40996 6.291493 8.804869 5.6815753 29.61727 15.11681 4.8661923
8.290252 4.034346 7.8429365 3.5346487 4.0626044 5.61629 3.4395661 29.274164

conv_block3.conv1.weight f4 [64, 32, 3, 3]
00000000: 5670 b93e b1e8 3b3e 7f2b ce3d 1d61 7f3d
00000010: 6514 1cbe 1d87 51be 3311 523e b289 a1be
00000020: a0ba a2be b0bb 283d 9f1b 7abe c761 f6be
00000030: 27b6 a63d 1110 5ebe 9443 00bf ad03 093e
00000040: 1041 f03d 8c21 cfbd 592c 253d e811 083c
00000050: a1f2 dbbd 4ed9 a2bd 5e5a 1ebe 230c 2b3d
00000060: 2d5d 1d3a 2a74 26be 6dbf c33d ad48 a1bd
00000070: 73e6 2cbe f4aa 2cbc 4bac c1bd 3ee7 31bd
00000080: 76d1 913e a302 dabd 33f3 513d dd3c 293e
00000090: eef1 85be 251d 31be 652f 8bbe 7915 983d
000000a0: c4b5 a63d 2ea6 d63b 472d a43d 829b 60be
000000b0: 2e6e 053e 3483 b43d ec13 bdbd 09e1 ddbc
000000c0: e591 3cbe f1a9 353e 62f7 73bc 0e6d 30be
000000d0: 3364 803d 61de 143e 07ba da3d d792 983e
000000e0: 104d dbbe 5eac 073d cfb2 633e 4440 3b3d
000000f0: e2a9 433d 5740 393d 9866 8cbd 70e0 76be
00000100: f05a fc3c 8bdf 493e 187b 70be ba37 b63d
00000110: 600c 903c 03d5 8abe eeb5 3abd ec74 ad3d
00000120: 84d9 823e 08ce 113d 5c0c 26be 1557 803e
00000130: 1b5e 02be fff2 34be ac3b 81be ae5c 81be
00000140: 4be9 00be 2056 eebc 250f 02be 86a0 f4bd
00000150: 49e7 b93d 0adb 33be 7f3f bcbe bc79 843c
00000160: 8f5b 7ebd 4491 f7bd 651f 453e 79c1 08bf
00000170: 8a4b 36be c0a5 f43e 660d d1bd 2cc7 0a3e
00000180: 4f8e 863e 2be1 44bd 81b7 a8bc de11 263d
00000190: a7cb 81be a5ff 25be ccf5 f13d 8892 0abe
000001a0: dcef 733e 391d 63bc f498 8cbe 8bd4 193a
000001b0: 40d7 e9bc aa4f f1bd 2632 94be 2ca5 0abe
000001c0: 8a3a 29be 3b3e 93be 666c 03be 7309 07be
000001d0: 9b78 9bbd fbd5 1dbe f03f 933d 24dd 323d
000001e0: 365b e4bc 9cfc 313d b5a6 3d3e ce1d 93be
000001f0: 0e2c d23b 674d 9cbc 0db1 0b3e 375c 06be
00000200: a1ac 44bd 140f 1abd 941f 9fbe a895 15be
00000210: 8550 cb3e 4263 93bd 0536 3ebe d03b 56be
00000220: 2402 0b3e 7c56 12be 2299 753c d1ac 5c3e
00000230: c1a7 a9bd 1470 75bd f9c9 f53d e88c 273e
00000240: 771f 80be 5180 cbbe fcbc 99be 765c a2be
00000250: 64be 0cbf 32ac 11bf 7e90 edbd c80f 0e3d
00000260: 41ea e2bd c766 84be d68b 773d 2f3a d4be
00000270: 5875 b13c 1b65 0bbb 073c 503d 28eb 12be
00000280: f0ab 803d 5116 523e 3187 04be 26f4 6abe
00000290: 486c 18be a7e2 93bc 2b0c 9bbd d568 76be
000002a0: 8ca4 40bd b2cc ac3e acae 9a3c 79fd e23d
000002b0: e7d7 a2be 6a51 7cbe 3105 4cbe 8f1a 97be
000002c0: fe31 54be 5e50 8c3d 3734 5bbe f97d a6bd
000002d0: 0f3d 543d db72 0fbe 4716 e5be 7822 adbd
000002e0: 6c90 03bd db8c 2bbe 083b d83d e6ae 543e
000002f0: cdd9 be3d 87bc 8c3e 7ae1 f43c d973 50bd
00000300: dda3 043e 7043 e2bc 9081 323c e06f 833d
00000310: c129 04be 33f6 97be 65ab 8cbe b012 ebbc
00000320: 0512 033e 0b9d 79be ee69 1e3e a360 af3e
00000330: d4c5 40be be1e a2bc 72b7 fe3d 339d 0e3e
00000340: d474 013d 4d2f 2fbd 94ad 3b3e 8b47 55bd
00000350: ef6e 12be 9230 623d d9f5 71bd 684c 153e
00000360: 27ca f2bd 18bf 5bbe ca1a 71be fbd6 94be
00000370: 4e8e a8be 697e 86be 8b40 643c 98c8 00be
00000380: 6a13 3cbe 13e0 d33c 1510 09bf aaac 0ebe
00000390: e911 5f3d e1ab 73be d85c be3e 0329 0abd
000003a0: dfc8 b3bc 2814 923e 91ab 193e 8fcc c6be
000003b0: 47b7 df3d da22 633e 0e5f 26bf 0af0 1b3c
000003c0: 11b2 303e 959b 4abe 6fad 37be 72ea 973e
000003d0: 9b6f a8bd e30e 7cbd 0dc5 c43e 5b71 cbba
000003e0: 8fa6 55bd f134 5dbd 19e2 ebbd 7531 6bbe
000003f0: 032b c4be c992 44be ba96 9c3d 9815 8ebe
0.36218518 0.18350483 0.1006689 0.062348474 -0.15242155 -0.20461698 0.20514373 -0.31550366
-0.3178301 0.041194618 -0.24424599 -0.48121473 0.081402116 -0.21685816 -0.50103116 0.13380308
0.1173116 -0.101138204 0.040325496 0.00830505 -0.10739637 -0.07951604 -0.1546416 0.04175962
0.0006002959 -0.1625525 0.09557996 -0.0787519 -0.16884784 -0.010538805 -0.094566904 -0.04343342
0.2848012 -0.10645034 0.051257323 0.16527124 -0.2616114 -0.17296274 -0.27184597 0.074259706
0.08140138 0.006550572 0.080164485 -0.21934322 0.13030311 0.088140875 -0.092323154 -0.027084844
-0.1841503 0.17740609 -0.014890524 -0.17229101 0.062691115 0.14537956 0.10680013 0.2979953
-0.42832232 0.033123367 0.22236179 0.045715585 0.047769435 0.045227375 -0.06855506 -0.24109054
0.030805081 0.19714181 -0.23484457 0.08897348 0.017584026 -0.2711564 -0.045583658 0.08469567
0.25556576 0.035596877 -0.16215652 0.25066438 -0.12731211 -0.1767082 -0.2524084 -0.2526602
-0.12588994 -0.029093802 -0.1270109 -0.1194468 0.09077317 -0.17564026 -0.36767194 0.016171329
-0.062099036 -0.12088254 0.19250257 -0.53420216 -0.17802253 0.47782707 -0.10207634 0.1355254
0.26280448 -0.0480663 -0.020595314 0.040544383 -0.25350687 -0.16210802 0.1181446 -0.1353246
0.23821968 -0.013861948 -0.27460444 0.0005868158 -0.028545022 -0.11782773 -0.2894451 -0.1353957
-0.16526237 -0.28758416 -0.1283432 -0.13187198 -0.07591363 -0.15413658 0.071899295 0.043667927
-0.027875524 0.043453798 0.18520625 -0.28733677 0.006413943 -0.019079877 0.13641758 -0.13121115
-0.048016194 -0.037612036 -0.3107878 -0.1460787 0.3970987 -0.07196666 -0.18575294 -0.20921254
0.13575035 -0.14290804 0.014990123 0.21550299 -0.0828395 -0.05992134 0.12001414 0.16362345
-0.25024006 -0.39746335 -0.30026996 -0.31711167 -0.54978013 -0.56903374 -0.11599825 0.03468302
-0.11079837 -0.25859663 0.060436092 -0.4145064 0.0216624 -0.002126998 0.050838497 -0.14347517
0.062827945 0.20516326 -0.12942196 -0.22944698 -0.14885056 -0.018052412 -0.0757068 -0.24063428
-0.047031924 0.3374992 0.018882118 0.11083502 -0.31805345 -0.24640432 -0.19923855 -0.2951245
-0.20722196 0.06851266 -0.21406637 -0.08129496 0.051816043 -0.14008658 -0.4474356 -0.0845384
-0.032120153 -0.16752951 0.10558134 0.20769843 0.09318886 0.27487585 0.029892672 -0.05089173
0.12953134 -0.027620047 0.010895148 0.06417823 -0.12906553 -0.29680023 -0.27474514 -0.028695434
0.12799843 -0.24376313 0.15470096 0.34253415 -0.18825465 -0.01979005 0.12437333 0.13927154
0.031605557 -0.04276972 0.18327934 -0.05207018 -0.1430013 0.0552221 -0.05907235 0.14579928
-0.11854964 -0.21459615 -0.23545375 -0.29070267 -0.3292107 -0.26268318 0.013931404 -0.1257652
-0.18366781 0.025863683 -0.53540164 -0.13933054 0.05446044 -0.23796035 0.3718021 -0.033730518
-0.021946369 0.28531003 0.15006854 -0.3882794 0.10923629 0.22181264 -0.6498879 0.009517679
0.17255427 -0.19785912 -0.17937253 0.29671055 -0.08224412 -0.061537635 0.38431588 -0.0015521453
-0.052160796 -0.054005567 -0.11517734 -0.22968085 -0.38314065 -0.19196619 0.07645936 -0.2775085

conv_block3.bn1.weight f4 [64]
00000000: a401 393f bf6a 2e3f 8304 303f f8fe 353f
00000010: 0388 423f 83dd 283f bec7 2e3f 3ba1 2e3f
00000020: 886c 0f3f 3daa 2f3f c564 443f b46d 223f
00000030: c6da 4a3f 774c 2c3f 5e9f 2e3f dd5d 233f
00000040: df06 213f 0c36 223f c535 203f c38d 3e3f
00000050: e638 1e3f a3d4 333f 6e95 1d3f c378 063f
00000060: b87e 1b3f 699e 2a3f c864 363f fcfa 3e3f
00000070: 8368 283f c8b0 0a3f e199 213f 42cc 1a3f
00000080: ff61 2c3f 2daa 183f d487 203f 2bb9 2f3f
00000090: 4206 1e3f ebba 0d3f 5d11 133f c0aa 433f
000000a0: 91cc 323f 70d2 1d3f 3db2 483f 0f5f 2e3f
000000b0: 2493 3e3f 66e2 3a3f 795a 233f cc0f 263f
000000c0: efbb 203f be37 333f d2e0 183f 0564 3f3f
000000d0: c79c 093f 5641 2e3f e031 2f3f 927b 0f3f
000000e0: 1f16 283f 95e9 143f f8ee 2a3f 15de 2a3f
000000f0: 9617 1d3f 4128 203f 84e0 193f fc58 1a3f
0.7226813 0.6813163 0.68756884 0.71092176 0.7598879 0.65963 0.6827353 0.6821477
0.5602498 0.6861914 0.7671626 0.63448644 0.7924007 0.67304176 0.68211925 0.638151
0.6290111 0.6336372 0.62582046 0.7443506 0.6180557 0.7024633 0.61556137 0.5252802
0.6074023 0.66647965 0.7124753 0.7460172 0.6578447 0.54175997 0.63125426 0.6046792
0.6733703 0.5963467 0.6270726 0.6864192 0.617283 0.5536334 0.5744837 0.7643242
0.69843394 0.6164923 0.7839697 0.681138 0.7444327 0.73001707 0.63809925 0.64867854
0.62786764 0.7000693 0.5971805 0.7476199 0.5375485 0.68068445 0.6843548 0.5604793
0.65658754 0.5816892 0.6677089 0.6674512 0.61364114 0.6256142 0.6010821 0.6029203

conv_block3.bn1.bias f4 [64]
00000000: b626 b4be 8f36 8fbe 941e a8be e9ed ffbe
00000010: e9e3 b4be b823 f4be db46 c7be c4fd cabe
00000020: 10fa c3be 6419 87be b97a a9be 7b4d ebbe
00000030: a8ad b7be c408 bfbe 6137 c5be a5a0 d9be
00000040: 3064 a1be be43 8fbe 6bd5 b2be 3be0 c6be
00000050: 7056 05bf 00f0 68be 843d e2be 81e0 0cbf
00000060: 5a93 b2be bcef a1be 18c9 d9be a0f3 10be
00000070: 6548 e1be 6897 b4be 0992 bfbe 4d77 dfbe
00000080: 17ae bfbe ce4d 03bf f976 c3be 7350 f5be
00000090: 5436 cebe 86cd bcbe 1042 bbbe 4736 c0be
000000a0: 94e0 bebe 93bb cebe 9a5a cabe 9e7e ccbe
000000b0: f7a3 81be d3b4 cbbe 28f9 05bf 5160 c9be
000000c0: 40de b4be e2e3 c4be 95a1 09bf db73 e9be
000000d0: 72ed 05bf 6e5e b1be 8c4b e3be fc6d 09bf
000000e0: 096f e4be c16b bfbe fa4d b1be 85ce e3be
000000f0: 389b c7be 16e0 efbe 9617 adbe 3b86 0bbf
-0.35185784 -0.27971312 -0.3283583 -0.499862 -0.35330132 -0.476835 -0.38921246 -0.39646733
-0.3827672 -0.2638656 -0.33101442 -0.4595755 -0.35874677 -0.37311375 -0.38518813 -0.42505375
-0.3152175 -0.2798137 -0.3492845 -0.3884295 -0.5208502 -0.22747803 -0.44187558 -0.55030066
-0.34878045 -0.31628215 -0.42536235 -0.14155436 -0.44000545 -0.35271764 -0.37416103 -0.43645707
-0.37437508 -0.51290596 -0.38176706 -0.4791294 -0.40275824 -0.36875552 -0.3657384 -0.3754141
-0.37280715 -0.40377483 -0.39522249 -0.3994035 -0.25320408 -0.39786395 -0.5233331 -0.39331296
-0.35325813 -0.3845511 -0.5376218 -0.45596203 -0.5231544 -0.34642357 -0.44393575 -0.5368345
-0.44615963 -0.37386897 -0.34629804 -0.444935 -0.3898561 -0.46850652 -0.33807057 -0.54501694

conv_block3.bn1.running_mean f4 [64]
00000000: 9405 5ec0 8a47 bac0 afdd 4fbe 47c1 a1bf
00000010: 8679 d8bf 3491 47c0 3743 babd 0d4b 383d
00000020: 426b 06c0 dc79 65bf 146a a83f 7134 8bbf
00000030: fc30 ffbf dcd8 44c0 e71a 4ec0 e6fa e43f
00000040: ebf4 edbf 24fa 55bf 1440 8f40 4506 abbf
00000050: 5373 8f3f 2b15 aec0 d25e 30c0 3b84 8440
00000060: f25c 00c0 a5ce 72c0 7de1 5cc0 c96e 06c0
00000070: ce54 b0bf e386 d2bf ab80 71c0 655e 79c0
00000080: c074 f4bf 6d57 0dbf 9945 47c0 ebbb 0cbf
00000090: 0996 0fc0 d3a0 59bf eb10 58c0 bba1 09bf
000000a0: b7a6 3bc0 d268 0fc0 58bd 29c0 bee9 4940
000000b0: 6e4c d23f 5cda c23e 6bf5 edbf 4524 a0bf
000000c0: 572e 16c0 c946 eabf 32ec 403f a0f5 133d
000000d0: d767 ea3f d6b8 10c0 99a7 f8be 80f2 d93d
000000e0: 08a7 a9bf 6b52 cb3f 0c81 4cbf 5b86 1840
000000f0: c25b e2bf 7650 f5bf 8214 2540 8fc7 acbf
-3.4690905 -5.821233 -0.2029941 -1.2637109 -1.6912086 -3.1182375 -0.090948515 0.04499345
-2.1002965 -0.8963907 1.3157372 -1.0875379 -1.9936824 -3.075736 -3.220392 1.7889068
-1.8590368 -0.8358481 4.476572 -1.3361288 1.1207069 -5.440084 -2.7557874 4.1411414
-2.005673 -3.7938626 -3.4512627 -2.1005118 -1.377588 -1.6447414 -3.7734783 -3.8963864
-1.9098129 -0.55211526 -3.113623 -0.5497424 -2.2435324 -0.85011023 -3.3760326 -0.53762406
-2.9320505 -2.2407727 -2.6521816 3.1548915 1.6429574 0.3805722 -1.8590521 -1.2511069
-2.3465784 -1.8302852 0.75360405 0.036122918 1.831294 -2.2612815 -0.48565367 0.10641956
-1.3254099 1.5884527 -0.7988441 2.3832004 -1.7684252 -1.916518 2.5793767 -1.34984

conv_block3.bn1.running_var f4 [64]
00000000: db01 2541 8922 0942 cb8b e340 63d1 d640
00000010: deda 0541 cb98 4541 743c 5441 34c2 f540
00000020: 882d 0e41 645b 1f41 b27e 2441 df7b 0141
00000030: e49d 4041 66a5 5241 dc0e c641 1a23 6441
00000040: b3c2 1741 142b 5341 f903 2b41 2c94 7741
00000050: d78d e440 8a19 8341 9c50 fe40 4ac8 7541
00000060: 460c 7441 b375 7b41 63a3 3041 58ce 3841
00000070: 0f0e 2641 9d38 5141 ab5a 2b41 1fb6 4a41
00000080: e986 0e41 ec97 1141 5179 4941 43ef bd40
00000090: be7c 1041 1479 1841 d120 3541 6f3c f840
000000a0: 28be f340 b5cd f640 46f2 4141 05ab 0b41
000000b0: 7027 2541 6d4c 9e40 3f7d 9940 7fb3 7441
000000c0: c050 2341 e597 2041 a45f 2b41 52db d740
000000d0: a1e0 0b41 0660 1741 e05c 5e41 bbb8 f340
000000e0: e6bf 4c41 a964 f140 ec70 d040 51dc ec40
000000f0: 40e0 c441 29a2 8641 1670 8241 97c0 8c41
10.312953 34.283726 7.1108146 6.71306 8.365934 12.349803 13.264759 7.6799564
8.886116 9.959812 10.280931 8.092742 12.0385475 13.1653805 24.757256 14.25857
9.485034 13.198017 10.68847 15.473675 7.1423144 16.38747 7.94734 15.361399
15.252996 15.716235 11.039889 11.550377 10.378432 13.076322 10.709636 12.669463
8.907937 9.09959 12.592118 5.9354568 9.030455 9.52956 11.320512 7.757377
7.6169624 7.7126107 12.121649 8.729253 10.322128 4.9468293 4.796539 15.293822
10.207214 10.037084 10.71085 6.7455225 8.742341 9.460943 13.897675 7.6163
12.79685 7.5435376 6.5137844 7.401894 24.609497 16.82918 16.30473 17.594038

k_3_freq_to_1.weight f4 [1, 6]
00000000: e6a6 bb3e 15f7 c6be 0086 403e f8e3 afbd
00000010: 1e43 c2be 0c15 ba3e
0.3665077 -0.38860384 0.18801117 -0.085884035 -0.3794183 0.36344182

conv_block1_kernel_5.conv1.weight f4 [16, 1, 5, 5]
00000000: d251 ebbe 1a8a 5e3f fc43 0b3e 2f5e 83be
00000010: adf8 c83e 0103 da3d 5034 503f 99b9 c83d
00000020: 790f 263e 3c20 37be 9efa 2fbe 100a 853e
00000030: b281 423e 3d72 42be 8973 0fbe 0896 1f3d
00000040: 2757 023f d552 febc e18d 21bd 0d08 ba3e
00000050: 87da 05bf 8197 713e ddb3 9fbe 0d0d 023e
00000060: bb27 a0be 329a 8abe 0d25 babd b6c4 24bf
00000070: dd24 5ebe 0528 8a3e dc70 003e 510f 4a3e
00000080: 5142 0cbf da61 e0be 07d3 7eba 7e5b cf3c
00000090: 8054 6bbe 31bb 7bbe 45b2 c5be 3a14 d73e
000000a0: 68c1 80be bd16 013f 171b c8bc 8cf4 b03e
000000b0: a70c 19bd db95 b1bc 8f93 ed3e a341 b13e
000000c0: 7465 4c3e e98a 063f ff21 c7be aac1 dc3e
000000d0: 06e2 1f3f 62d3 a3bc fb3d e1bd 705a 27bf
000000e0: 4e7e 0d3e faed 1e3e 025a 5bbe 3661 f8bd
000000f0: e2b3 cfbe e95b a63e b078 87bc eb5f cabd
00000100: 44d9 dbbd a6c3 32bf b0d8 71be b1ac 663e
00000110: 4f89 bd3e 3e06 e33e 7cd9 0abf 58e6 cabe
00000120: 794a ee3e 43a0 bcbe bc44 6bbb c012 843e
00000130: cbcc 0a3f 1234 78be c310 d33e ce56 eabd
00000140: c3c6 293f 23dd 123f b3f4 143e 4439 a43e
00000150: 0323 e83e d85d c4be dae9 dd3e a4a8 53be
00000160: e120 57bd 834b c0be 416a 8bbe 568f cbbe
00000170: 41a9 cebd 7b90 973d 2991 973e 28c9 c7be
00000180: f5e7 1dbf d3c5 4ebe d863 96be d4d1 f1be
00000190: 3af7 09bf cf8d bc3e 9d05 10be 272c e5be
000001a0: 8996 383e eb66 b0be f0e8 debe e639 3cbe
000001b0: 4e72 b5be 0c79 abbd c601 a1bd 550a fc3d
000001c0: 399b 7dbd 7058 053f 9d56 853e fca5 10bf
000001d0: c0d4 0bbd d65a d33e 3280 d13d eee1 113f
000001e0: 7dd4 cc3e 95f4 a3be 99e0 a2bd 5726 153f
000001f0: 86bf c0bd 26dd a7bc 5a18 92bd 6deb 1cbe
00000200: 3fca 03bf 9d4c 113f 2d15 cbbe 59a2 ac3e
00000210: 7ddd b1be 9d3a 92be 162b cc3e 728c c2be
00000220: d0f3 c4be d059 893e 0507 24be 844d 2f3f
00000230: a279 f63d 4f4c 2e3e 3ed2 e03d fbba 9d3e
00000240: 9114 ba3e 715d d8be a5e7 a6be 2be4 b2be
00000250: 8166 ee3d 8875 2c3f 12f3 e13e 38d3 4a3e
00000260: cbba 263e eb19 6a3e 15b3 0a3e 93e5 2fbf
00000270: 5fcd a53d 3916 b4be 82ea 05be a9d6 c9be
00000280: 6858 99bd 527f d33d fa63 853e aaf0 213e
00000290: 4cf2 bc3b 768f 153f f467 503d 096e bd3d
000002a0: 1d90 e33e c86f a0be 756d c0be ca3e 0bbf
000002b0: 16e1 943e 6c63 b4be 3a0f 8c3c 9ece 9abe
000002c0: a87d b63e d23d 293f 090d 963e 6a3e cd3e
000002d0: e6d9 08be b0b0 0b3f 2951 0d3e 1c08 d93d
000002e0: 669d b8be 1e0a 5a3e a332 e83d 1575 64be
000002f0: 0b8c 4a3e 5eae 6e3e 1aab d83e 7ee3 73be
00000300: 7ea7 29be 6a6e 0fbf e9a7 6cbd af0a cebe
00000310: 27b0 aabe 119c dfbe 3036 bb3d 7514 ffbe
00000320: 57bc 6ebe e614 823e f3d6 153f af0d dc3c
00000330: 6c58 dcbd 2212 6e3d 3b95 a23e 4bb6 ab3e
00000340: 1f77 ef3e 0e7c f6be 7ffb 1bbf f009 74be
00000350: 20e6 c83c e22b 7e3e 9839 283e c9b7 6ebe
00000360: d3c9 5b3e 0436 153f ca7c 373e 85bf e2bd
00000370: 53ac 14bf 340c 4cbe 70ca 24be 8072 283d
00000380: 25a7 96bd 7382 acbd bf2a 71be 8832 0bbe
00000390: 175c cf3d 1578 febc 457a 0c3f 94ca b83d
000003a0: 3939 20be 33a1 dd3e 169e 4dbe 41c0 b83e
000003b0: ea7e 54bf 2f1e b83e 00b3 6f3d c606 97be
000003c0: 5056 903d 2040 e8bd 0bd2 f93e 8249 8d3e
000003d0: be73 a23e 215b 0a3e 839b 2cbf 1909 41be
000003e0: 3e0d 163e deb6 d7be 32d4 be3b 25be 2a3e
000003f0: 8d18 0cbf 8050 7bbe ec2a aebc 6171 573e
-0.4596086 0.86929476 0.13600153 -0.25657794 0.39252225 0.10645104 0.8132982 0.09801025
0.1621684 -0.1788339 -0.17185447 0.2598424 0.18994787 -0.18988891 -0.14008917 0.03896144
0.50914234 -0.031045357 -0.039441947 0.36334267 -0.5228657 0.2359295 -0.31191912 0.12700291
-0.31280312 -0.27070767 -0.09089098 -0.6436266 -0.2169375 0.26983657 0.12543052 0.19732405
-0.5478869 -0.43824655 -0.00097207766 0.025312182 -0.22981453 -0.24583127 -0.3861257 0.4200762
-0.25147557 0.5042532 -0.02442698 0.34561574 -0.03736558 -0.021677902 0.4640164 0.3462039
0.19960576 0.5255571 -0.38893124 0.43116504 0.6245426 -0.019998256 -0.1099815 -0.6537237
0.13817713 0.15520468 -0.21421054 -0.121279165 -0.40566927 0.32491997 -0.01653704 -0.09881576
-0.107347995 -0.69829786 -0.23617816 0.22526814 0.3701882 0.443407 -0.54238105 -0.39628863
0.46541193 -0.3684102 -0.0035899123 0.25795555 0.5421874 -0.24238613 0.41223726 -0.11442338
0.6631891 0.5736868 0.1454647 0.3207494 0.45339212 -0.38352847 0.43342477 -0.206698
-0.05252159 -0.3755761 -0.27229503 -0.39757794 -0.10090876 0.07400604 0.29602936 -0.39020658
-0.61682063 -0.20192651 -0.2937305 -0.472304 -0.5389286 0.3682694 -0.14064641 -0.44760248
0.18026175 -0.3445352 -0.43537092 -0.18381462 -0.3543877 -0.08372697 -0.078616664 0.12306658
-0.06191561 0.5208807 0.26042643 -0.5650327 -0.03413844 0.4128024 0.102295294 0.56985366
0.40005866 -0.3202254 -0.07952995 0.58261627 -0.0941153 -0.020491194 -0.07133551 -0.15324183
-0.5148048 0.5675753 -0.39664593 0.3371761 -0.34739295 -0.28560343 0.39876622 -0.37997776
-0.38467264 0.26826334 -0.16018303 0.68477654 0.12034918 0.17021297 0.109776005 0.30806717
0.36343816 -0.4225879 -0.32598606 -0.34939703 0.11640645 0.6736684 0.4413076 0.19807136
0.16282193 0.2286145 0.13544877 -0.6870968 0.08095812 -0.35173205 -0.13077739 -0.39421585
-0.07487565 0.10327019 0.2605284 0.15814462 0.0057661887 0.5842203 0.050880387 0.09249503
0.44445887 -0.31335282 -0.3758351 -0.54392684 0.29077977 -0.35232103 0.017097104 -0.3023576
0.35642743 0.66109955 0.2930682 0.4008668 -0.13364372 0.5456648 0.13800491 0.1059725
-0.36057585 0.21292922 0.11337783 -0.22310288 0.19779985 0.23308703 0.4231804 -0.2381725
-0.165678 -0.56027853 -0.05777732 -0.40242526 -0.3333752 -0.43673757 0.09141195 -0.49820295
-0.23314033 0.2540657 0.5853111 0.026861994 -0.10759053 0.05812276 0.3175448 0.33537516
0.4677057 -0.4814152 -0.6093063 -0.23831916 0.024523795 0.24821427 0.1642822 -0.23312296
0.21463709 0.58285546 0.17918697 -0.11071686 -0.58075446 -0.1992653 -0.16092849 0.04112482
-0.07356099 -0.08423319 -0.23551463 -0.13593495 0.101249866 -0.031063119 0.5487407 0.09023014
-0.15646829 0.43287048 -0.20079836 0.36084178 -0.83006155 0.35960528 0.058520317 -0.29497355
0.07047713 -0.11340356 0.48793063 0.27595145 0.3172893 0.13511325 -0.6742479 -0.18851127
0.14653489 -0.42131704 0.0058236355 0.16674097 -0.5472496 -0.24542427 -0.021260701 0.21039344

conv_block1_kernel_5.bn1.weight f4 [16]
00000000: 97be 373f d6c5 733f 5fbd 393f 4fec 913f
00000010: d9cf 423f 405d 5f3f de5a 883f 948f 8d3f
00000020: ed1b 343f e9c0 9c3f a63c 8b3f e0df a13f
00000030: b3e5 4d3f 1045 813f 339f 933f ea65 6b3f
0.7177519 0.9522375 0.7255458 1.1400241 0.760984 0.87251663 1.065273 1.1059442
0.7035511 1.2246372 1.0877883 1.2646446 0.8042862 1.0099201 1.1532959 0.91952384

conv_block1_kernel_5.bn1.bias f4 [16]
00000000: 4048 c3be 049d 8ebe 7bb2 c6be 7b99 2ebf
00000010: 2217 dfbd 3be0 30be c41f 1dbf 4ce4 29bf
00000020: 668a dfbd a857 04bf b197 34bf ec6c f8be
00000030: 21e3 91be f03e 0dbf 58aa c2be 5db7 37bd
-0.3814106 -0.27854168 -0.38808045 -0.6820294 -0.10893084 -0.17273037 -0.61376595 -0.6636398
-0.10915069 -0.5169625 -0.7054396 -0.485206 -0.28493598 -0.5517416 -0.38020587 -0.044852603

conv_block1_kernel_5.bn1.running_mean f4 [16]
00000000: e5e5 953d 404f 9c3b e5b3 53bd fdc9 19b8
00000010: 1b55 0fbc 44d9 aa3c b7d3 a4ba 285d 383a
00000020: decd 8b3c 8d97 56bb 7cc0 73bb 009d f33a
00000030: a059 043c ea3b 883b 447b 08bc 95c6 cbba
0.073192395 0.0047701895 -0.051685233 -3.666616e-05 -0.008748318 0.020855553 -0.0012575303 0.00070329243
0.017065939 -0.003274414 -0.0037193587 0.0018586218 0.008078009 0.004157533 -0.00833017 -0.0015546853

conv_block1_kernel_5.bn1.running_var f4 [16]
00000000: f42d 3140 1eb7 393f 0c41 1040 470d 393f
00000010: 9fe0 773f bb13 e73f e440 763e fd9d 0d3f
00000020: 777d a53f de3b d03e e9e5 a03e e5f3 fa3e
00000030: 4a6f 923f 83ae 233f 567e 963f 2228 4a3f
2.7684298 0.7254504 2.2539701 0.72285885 0.9682712 1.8052896 0.24048191 0.55319196
1.2928914 0.40670675 0.31425408 0.49014202 1.1440213 0.6393816 1.1757305 0.7896749

conv_block2_kernel_5.conv1.weight f4 [32, 16, 5, 5]
00000000: d8eb 133e 5aad 273e 7244 a1be 9e08 fcbd
00000010: ba75 f6be 7355 343e 162f 383e 5a37 8dbd
00000020: b5f3 223c 106d 96be 3ca4 fe3d e3c1 053e
00000030: 8844 99bd b5f0 09bd 9a45 a9bc a1b6 d23c
00000040: a420 09be 3bd3 96be 120d 31be 17e9 083d
00000050: 0c30 2ebd 77f8 0ebe 51ca ec3c e311 0d3e
00000060: 1fd9 7c3e 4d7f 683e cb09 d33d 33e2 16bd
00000070: f955 823d f6f0 7a3e feef 7bbe 8b8e b4be
00000080: 6897 73be 96fd 72be 321d 133e a75c 0ebf
00000090: 4daa 1dbf 29e2 13be dce3 20bd 5aab 2dbe
000000a0: 277e c5be 69e6 99be bb04 433e 91f4 8f3e
000000b0: 56d4 2abe 42a5 37be 2238 dbbd bb32 a53e
000000c0: 7332 513e 8388 10bd d9d9 96bd 92e6 1bbe
000000d0: ea5e b4be 04be 80be aff4 dabe a14d 74bc
000000e0: 9495 49be ce87 89be 3cef c4be 0d8b 77be
000000f0: 3835 c23d 0a7a e4bd 9deb db3d 6cb2 1dbd
00000100: 5865 723d 5c14 133e 295b 093e 27cd 693e
00000110: a7c5 ca3d d41c e03d 7cc4 7c3e c39c 583e
00000120: 617f 023f 216f 8e3e 538a 873e 5f3b 8f3d
00000130: 47b0 113e 47d3 3d3d 3466 203e 4eb4 923e
00000140: 292f 15be cd18 8e3e 9770 123e 1484 e53d
00000150: 055c 433d efe7 223e dbe0 6f3e 51ad d73b
00000160: 9dee 7e3e 0543 973e 3715 003e 64cb 2fbe
00000170: 10e8 6fbe 3c29 c63d d46b dbbe bf9f bdbe
00000180: 08f8 e1be 4828 c83d 1268 8c3e 9b73 b83c
00000190: 9a97 773e d3b1 23be b7ac e2bd a772 88bd
000001a0: accc 8a3e 0758 a43c 8e59 98bd 67b5 bdbe
000001b0: a179 c3be 9921 a6bd c3ed fcbd 254b 1bbf
000001c0: 75ca b8be fe51 17be 6ee6 2ebe 17d3 e8bd
000001d0: a244 aebe bb36 193e f60d 683e ece1 253d
000001e0: 202c 173e 771c 083c 23c4 ce3e 01d2 1f3e
000001f0: 876e 843d 4034 193e b770 04bf ecbe 23bf
00000200: db94 8cbe d950 613e ee3c 1a3e aa25 d5be
00000210: 44b0 10bf d685 94be e0cb 6dbd a277 95bc
00000220: a6e3 e8be 3f59 87be 3ecf 653c 58ea 8bbc
00000230: 9c77 1bbd aed1 b8be 9ab2 3a3e 1490 9f3e
00000240: 7622 29be 6476 7c3c 0ad0 12be ea86 983e
00000250: 9f7d d33d 5380 c6bd 1f64 e53d 7062 06be
00000260: 954a 4a3c 4c19 f33b d38e e3be 23a8 bc3e
00000270: 30e0 763c 2a33 5d3c e506 c93d d340 a1be
00000280: f387 983b 7ead 3fbe 15fd adbd 6156 1d3e
00000290: ca4c 393d 84c4 48be cd77 c8be 0074 afbd
000002a0: fa11 833e a825 93bc 285e ecbc b596 b6be
000002b0: 06c9 0b3e 7355 e93e e9ac 773e e007 56bd
000002c0: 5495 1abd 6df0 07be e636 babd 863f d83d
000002d0: 0c02 a13d 475c ac3e c2f6 af3d b8e1 2fba
000002e0: bb0f 063e 53b6 9b3d 8ce0 183c 6ff1 d9bb
000002f0: 67da 533c 0645 fd3c 7b76 6d3d c98e 2ebe
00000300: 4ee6 8f3e 79b8 9bbd 224b 55be 60d1 91be
00000310: be80 39be 46e6 4c3e 4534 a83d a281 973d
00000320: 96c2 a93c 48d0 31bd 5ec0 b7be 2017 bbbe
00000330: be73 7fbd 17e8 c53d dead b73d 1c0d a2be
00000340: 2326 46be 051d 01be 9f17 823c f0dd 843e
00000350: 149c 4bbe a39b 2bbe d69f ec3e a66b 133d
00000360: a04f d9bd ffb6 223d ee81 a63c 3fab 00bc
00000370: 572a c33d b726 19be af1a a33d cb55 2d3e
00000380: f964 383e 0f76 04bd 54a5 abbe d113 033f
00000390: 6eb2 47be bef2 8ebc bee0 a03d f201 2e3b
000003a0: 4b79 d33e e56b b53c eef4 d33b 0a02 7f3d
000003b0: ffd6 94bd 2683 833e 600c 81bc 3edb b8bd
000003c0: b24f 2f3c 0dea 523b 2871 c6bd 37b1 9fbb
000003d0: 9c6c 233e deb6 a23d 6069 0ebd 8ae6 563e
000003e0: 756f 833e 6ff3 ec3b 0650 5a3d 9473 55bd
000003f0: d6ae 0d3e 39f3 69bd 6111 f43a 2b8f 833e
0.14445436 0.16374722 -0.31497532 -0.12306331 -0.48136693 0.17610721 0.17986712 -0.06895323
0.0099458 -0.29380083 0.12433669 0.13062243 -0.074837744 -0.03367682 -0.020663071 0.02572185
-0.13391358 -0.2945803 -0.17290142 0.033425417 -0.04252629 -0.1396197 0.028905066 0.13776354
0.246922 0.22704811 0.10304602 -0.036836814 0.06364054 0.24505982 -0.24603269 -0.35265002
-0.23788226 -0.23729548 0.14366606 -0.55610126 -0.61587983 -0.14441742 -0.039279804 -0.16959897
-0.3857281 -0.30058601 0.19044773 0.28116277 -0.16682562 -0.17934135 -0.10704066 0.32265267
0.20429401 -0.035286438 -0.0736577 -0.15224674 -0.35228664 -0.2514497 -0.42764804 -0.014911086
-0.19685966 -0.26861423 -0.3846377 -0.24174137 0.09482807 -0.111560896 0.10738299 -0.038500234
0.05917868 0.14363235 0.13413681 0.22832166 0.099009804 0.109429985 0.24684328 0.2115355
0.50975615 0.2781916 0.2647272 0.06993746 0.142274 0.046344068 0.15663987 0.28653187
-0.14568771 0.27753296 0.14300762 0.112068325 0.04769518 0.15908788 0.2342562 0.00658194
0.24895711 0.2954332 0.12508093 -0.17167431 -0.23428369 0.096758336 -0.42855704 -0.3703594
-0.44134545 0.09773308 0.2742315 0.022516062 0.24178925 -0.15985803 -0.11068099 -0.06662493
0.27109277 0.020061506 -0.07438956 -0.37052462 -0.38178733 -0.08111877 -0.12350037 -0.60661536
-0.36091962 -0.14777371 -0.1708009 -0.11368387 -0.34036738 0.14962284 0.22661576 0.04049866
0.14762926 0.008307568 0.40384015 0.15607454 0.06466394 0.14961338 -0.5173449 -0.639632
-0.27457318 0.22003497 0.15062305 -0.41630298 -0.5651896 -0.2900836 -0.05805576 -0.018245522
-0.45486182 -0.26435277 0.014026461 -0.017079517 -0.037955865 -0.36097473 0.18232194 0.3116461
-0.16517052 0.015409086 -0.14337173 0.2979043 0.10326695 -0.09692445 0.11200737 -0.13123488
0.012346883 0.007418787 -0.44444904 0.36847028 0.015068099 0.013500968 0.09815768 -0.3149477
0.0046548783 -0.18718526 -0.08495537 0.15364982 0.045239247 -0.19606215 -0.391539 -0.08567047
0.25599653 -0.017962292 -0.028853491 -0.35661855 0.13650903 0.45573005 0.24187054 -0.052253604
-0.037740067 -0.13275309 -0.09092502 0.10558991 0.078617185 0.33664152 0.08591987 -0.0006709355
0.13091938 0.07603135 0.00933088 -0.0066510956 0.012930489 0.030916702 0.05797432 -0.17046656
0.28105396 -0.07603545 -0.20829442 -0.28480053 -0.18115517 0.20009717 0.082130946 0.07397772
0.020722669 -0.043411523 -0.35888952 -0.3654108 -0.06236624 0.09663408 0.089687094 -0.31650627
-0.19350486 -0.12608726 0.015880404 0.25950575 -0.19883758 -0.1675859 0.46215695 0.035991333
-0.106108904 0.0397253 0.020325627 -0.007853328 0.0952956 -0.14956175 0.07964074 0.16927259
0.18007268 -0.032339152 -0.33524573 0.5120211 -0.1950166 -0.017449733 0.07855366 0.0026551452
0.41303477 0.022146175 0.006468407 0.062257804 -0.0726757 0.25685996 -0.015752971 -0.09026192
0.010700153 0.0032182962 -0.096895516 -0.0048734206 0.159594 0.079450354 -0.034768462 0.20986381
0.25670972 0.007231168 0.053298973 -0.052112177 0.13836226 -0.05711672 0.0018620902 0.25695166

conv_block2_kernel_5.bn1.weight f4 [32]
00000000: 29cc 733f 21db 7a3f c9f1 5e3f 06ef 523f
00000010: 8f58 8a3f 2a44 9c3f ab56 723f 5b0e 843f
00000020: 866d 8e3f 20ae 7c3f b9ba 833f b720 693f
00000030: 0152 843f d1f7 803f 6057 5f3f d2e6 483f
00000040: 7a1f 593f 136e 613f 7c3c 7b3f ca6a 913f
00000050: 1556 8a3f 6a83 453f d055 343f b9c3 553f
00000060: fae4 6c3f cbea 813f e77d 853f 3ab6 833f
00000070: e218 6d3f 8ada 4d3f e0f7 163f 3b91 5b3f
0.952334 0.97990614 0.87087685 0.8239597 1.0808276 1.2208302 0.94663495 1.0316881
1.1127174 0.98703194 1.0291358 0.91065544 1.0337526 1.0075628 0.872427 0.78477204
0.84813654 0.88058585 0.98139167 1.1360714 1.080752 0.77153647 0.7044344 0.83501774
0.9253689 1.0149778 1.0429047 1.0289986 0.92616093 0.8041159 0.5897198 0.8576848

conv_block2_kernel_5.bn1.bias f4 [32]
00000000: d02a 06bf e546 00bf de0e c6be d76f 19bf
00000010: aedc f6be 0438 1ebf 8299 0fbf 767a 0abf
00000020: bd56 01bf 70ea d8be 8fa3 f5be 7fdc dbbe
00000030: adb8 d3be d4e4 16bf c203 f0be 3ff6 f6be
00000040: 5f82 12bf d0d2 bdbe 226e 02bf 464e 1cbf
00000050: 75aa 03bf daa4 02bf 8221 f6be 1ead 1ebf
00000060: d05a cebe 1e07 26bf ab97 3ebf fa27 f0be
00000070: 9c6a 2fbf 5728 f1be edf8 02bf f90e febe
-0.52409077 -0.50108176 -0.38683218 -0.5993628 -0.4821524 -0.61804223 -0.5609361 -0.5409311
-0.5052298 -0.42366362 -0.47976348 -0.42941663 -0.41351834 -0.58942914 -0.46877867 -0.48234746
-0.5723018 -0.370749 -0.509493 -0.61056936 -0.5143197 -0.51032794 -0.4807244 -0.61982906
-0.4030366 -0.6485461 -0.74450177 -0.469055 -0.6852205 -0.4710109 -0.5116108 -0.49620798

conv_block2_kernel_5.bn1.running_mean f4 [32]
00000000: df4b ddbf a826 1fc0 3dcc 40c0 63e2 00c0
00000010: 9e81 99c0 e212 4ac0 525a 68c0 79f4 08c0
00000020: ddd3 22c0 43e3 2fc0 a484 28c0 df54 2cc0
00000030: a816 f9bf 7641 3ac0 ee23 1ac0 ef55 1ac0
00000040: a7bf 30c0 6ad7 d9bf 782d 76c0 d520 0fc0
00000050: a7a7 8bc0 6380 0fc0 da93 17c0 86c5 aebf
00000060: fc36 1fc0 f2af 31c0 ba8a 37c0 06e6 29c0
00000070: 5ab8 a7bf b128 a6bf ced4 fe3f a317 39c0
-1.7288779 -2.4867344 -3.0124657 -2.0138175 -4.7970724 -3.1574025 -3.6305127 -2.1399214
-2.544181 -2.748246 -2.6330957 -2.6926801 -1.9460039 -2.9102454 -2.408443 -2.411495
-2.7616975 -1.7018864 -3.8465252 -2.236379 -4.3642154 -2.242211 -2.3683991 -1.3654029
-2.487731 -2.7763638 -2.8678422 -2.6546645 -1.3103135 -1.2981168 1.9908693 -2.8920677

conv_block2_kernel_5.bn1.running_var f4 [32]
00000000: 247c 1f41 e12d 4c41 5101 8d41 7dff 0441
00000010: cc9c 9b41 1c4d 3f41 dc52 5341 4c26 f940
00000020: 6f33 4c41 804f 3441 676c 3841 f805 3241
00000030: 74d8 d740 783e 8241 434d 1a41 d4e3 4e41
00000040: 329d 6d41 1f92 ac40 843d 5641 9621 2441
00000050: b92c 6b41 d509 fa40 a34e 3e41 e917 d740
00000060: 4e32 1741 0539 0a41 c970 5341 0f7e 5a41
00000070: ec13 ae40 6313 db40 15b9 5041 b0cc 5941
9.967808 12.761201 17.625643 8.312375 19.451561 11.956326 13.207729 7.785925
12.762557 11.269409 11.526465 11.126457 6.7451725 16.280502 9.643863 12.930622
14.850878 5.392837 13.390018 10.2582 14.698419 7.8137 11.894198 6.7216687
9.449781 8.638921 13.215035 13.655776 5.439932 6.8461165 13.045186 13.612473
